final_test_/models/pcr_model_1_2.pt (torch, 317231 bytes, 7 tensors)

c1.weight f4 [10, 1, 9]
0.037386745 -0.051386952 0.061748832 -0.17700315 -0.018600494 0.09197569 -0.30569515 -0.2186896
0.04972565 0.23207495 -0.13301063 -0.28099892 -0.06666914 -0.29705304 -0.2621168 0.06702027
-0.20918262 -0.14663729 -0.2706003 0.30181965 -0.31874365 0.019946784 0.21406057 -0.12358193
0.028211504 -0.23153055 0.055866152 -0.10000521 0.31201395 0.004052356 0.2737772 0.25812414
-0.15907001 -0.316062 0.14756802 -0.2802048 -0.21791625 0.13136362 0.1374833 -0.1884292
0.1277078 0.0092889825 0.07615232 -0.28129974 0.27593282 -0.22524604 0.24390307 -0.21928069
0.039146334 -0.19452906 -0.053767234 -0.11834316 -0.3193149 -0.16599862 -0.3321556 -0.035434693
-0.2632548 -0.0032008241 0.08940395 -0.0061417986 0.07393446 0.19475871 0.32239684 -0.2087876
-0.16030487 -0.3201314 -0.22268765 0.20139685 -0.3175981 0.19316962 0.23581782 -0.013465792
-0.18083566 0.105569676 0.136442 0.109263845 0.08671946 0.22093926 0.08846747 -0.041051615
-0.28019705 -0.26615998 0.060662895 0.16995534 0.19072595 0.18984416 -0.18552876 -0.32351288
0.0497061 -0.17458045
00000000: d822 193d 207b 52bd 58ec 7c3d 5040 35be
00000010: 1060 98bc c05d bc3d 1384 9cbe 2bf0 5fbe
00000020: 20ad 4b3d 0ea5 6d3e f033 08be 17df 8fbe
00000030: d489 88bd 5617 98be 2c34 86be ec41 893d
00000040: f833 56be 1628 16be 1f8c 8abe 1b88 9a3e
00000050: 5e32 a3be 7067 a33c b232 5b3e 8618 fdbd
00000060: d01b e73c 5816 6dbe e8d3 643d 88cf ccbd
00000070: 4bc0 9f3e a0c9 843b 862c 8c3e d928 843e
00000080: 40e3 22be e1d2 a1be 121c 173e 0177 8fbe
00000090: 7025 5fbe 2f84 063e 6cc8 0c3e 96f3 40be
000000a0: d5c5 023e d130 183c bff5 9b3d 8506 90be
000000b0: 1147 8d3e e6a6 66be bac1 793e 1e8b 60be
000000c0: e857 203d a032 47be 083b 5cbd e65d f2bd
000000d0: 3e7d a3be 8bfb 29be 4c10 aabe f823 11bd
000000e0: 55c9 86be ebc4 51bb 6b19 b73d 2441 c9bb
000000f0: f36a 973d d46e 473e 3311 a53e 6bcc 55be
00000100: f626 24be 43e8 a3be 3b08 64be fa3a 4e3e
00000110: 389c a2be 42ce 453e 3a7a 713e a09f 5cbc
00000120: fc2c 39be ea34 d83d 74b7 0b3e b9c5 df3d
00000130: f999 b13d e73d 623e 6f2e b53d bd25 28bd
00000140: fd75 8fbe 1f46 88be a879 783d c608 2e3e
00000150: aa4d 433e 8266 423e 40fb 3dbe 7ba3 a5be
00000160: a098 4b3d 38c5 32be

c1.bias f4 [10]
0.20807645 0.17769322 0.20934442 0.16338767 0.17705809 -0.03201118 -0.06898587 0.05506423
-0.1445058 0.30302677
00000000: fe11 553e 36f5 353e 625e 563e 194f 273e
00000010: b74e 353e 281e 03bd 7748 8dbd 088b 613d
00000020: 54f9 13be 5326 9b3e

fc1.weight f4 [300, 160]
-0.054319426 0.075416915 -0.005556464 -0.034179 0.05143342 0.059383817 -0.021953873 -0.063338794
-0.035511438 -0.03533738 -0.028411068 -0.029833037 0.014930464 -0.033338945 -0.054370828 0.042083085
-0.023269527 -0.025352605 -0.042797927 0.053584523 0.04778499 -0.039373223 0.010516174 0.06547358
-0.04746176 -0.06431309 -0.009007581 0.077888094 -0.022211231 -0.009588629 0.04857681 -0.057597544
-0.04112229 -0.040739853 -0.020158786 0.0729093 0.07570387 0.04662747 -0.0047590733 0.07564951
0.05251027 0.0006875172 -0.04192645 -0.02754192 0.042410374 -0.020493865 0.027990103 -0.01279594
-0.051141284 0.050483648 -0.025602818 0.042254448 0.06388328 -0.037992466 -0.06405346 -0.023254976
-0.03183974 0.030271936 -0.0062441817 -0.0386995 -0.058309786 -0.024495035 -0.030069139 0.014416196
0.07743753 -0.05643783 0.080485694 0.0012494161 -0.05842414 0.038436145 -0.00912625 0.06574793
-0.0019055636 0.03140798 -0.044120803 -0.028350541 -0.066891156 -0.07771325 -0.082521014 0.041209225
-0.032340623 0.025264591 0.022360384 0.011931255 0.055903487 -0.076622844 0.04168137 -0.042651117
-0.024979606 -0.024874311 0.07673595 0.022683963 -0.020541742 -0.03226767 0.026865989 -0.043155413
0.07180759 0.043747384 0.035924945 -0.047008075 -0.01560679 0.026442287 -0.037489604 0.06459138
-0.046061054 0.0040555773 -0.0841605 -0.03988311 0.05016041 0.042151943 -0.0060398644 -0.063102394
-0.028119218 0.0028593764 -0.05953217 -0.0614897 0.05854579 -0.07148248 -0.07695226 0.07729622
-0.079039365 0.010807529 -0.02143658 0.044446126 0.026617385 0.017344058 -0.071950786 0.046835102
-0.03530485 0.022854382 0.007904955 0.046192147 0.003576325 0.03339511 -0.0027514147 0.06748156
0.020378953 -0.009432995 0.075199634 -0.039668966 -0.010824699 -0.0047641112 0.07216615 0.05743036
0.05380682 0.056076102 0.056833707 -0.02771876 -0.060626768 0.0625099 -0.017914928 -0.01874471
0.013949193 -0.030185819 0.058067463 0.049206443 0.06769968 -0.0028748885 0.04905901 -0.024373908
-0.07623087 -0.043078236 0.047371216 -0.06644624 -0.04426128 -0.040539756 -0.03814445 -0.03109572
0.0712361 -0.027832612 -0.016890109 0.028670907 0.06616201 -0.018292155 0.00022813678 0.025773153
-0.013615154 0.04160001 0.017110556 0.027357288 0.0018376261 0.031503253 0.008513778 0.055357553
0.009708472 -0.04186603 0.059421547 0.07036034 -0.022188537 -0.073434785 -0.04378215 -0.020251188
-0.061195392 0.07081642 -0.009962067 -0.023656715 -0.040805116 -0.03805542 0.019881718 -0.023262572
-0.05754927 -0.05018505 0.032403298 0.034974553 -0.06239049 0.06791303 0.015111342 0.06820885
0.048835717 -0.049451984 0.026247162 0.022727493 -9.3589115e-05 0.07674901 -0.015660059 0.02700348
-0.011798557 -0.0024894704 0.012178004 0.014932167 -0.03455097 -0.032675877 0.040877078 0.07153592
-0.014201814 0.042349696 0.07640789 0.022961048 -0.027188886 -0.0041920952 0.061920103 -0.02151788
0.07253757 0.053750187 -0.036522858 0.07440982 0.04482414 0.05388738 -0.069000326 0.066678785
0.023051813 -0.06509472 -0.00017832965 0.029844575 0.05277697 0.015695304 0.019228376 0.00012937933
-0.046099737 -0.06555059 0.023759589 0.051842295 -0.055721547 0.075258784 0.042620406 0.057427816
00000000: 0c7e 5ebd 2f74 9a3d 0013 b6bb 47ff 0bbd
00000010: daab 523d 723c 733d 9cd8 b3bc c5b7 81bd
00000020: 7174 11bd eebd 10bd 54be e8bc 6a64 f4bc
00000030: e89e 743c 6b8e 08bd f2b3 5ebd 505f 2c3d
00000040: bc9f bebc 44b0 cfbc e14c 2fbd 727b 5b3d
00000050: 32ba 433d d145 21bd 084c 2c3c 0317 863d
00000060: 4367 42bd 95b6 83bd 8894 13bc cb83 9f3d
00000070: 54f4 b5bc a019 1dbc 7af8 463d 67eb 6bbd
00000080: d96f 28bd d5de 26bd 0a24 a5bc 7951 953d
00000090: a10a 9b3d 72fc 3e3d 00f2 9bbb 21ee 9a3d
000000a0: 0215 573d 803a 343a 12bb 2bbd 989f e1bc
000000b0: 80b6 2d3d c0e2 a7bc 804b e53c 10a6 51bc
000000c0: 8679 51bd f1c7 4e3d 00bd d1bc 0013 2d3d
000000d0: 3dd5 823d fd9d 1bbd 762e 83bd 3881 bebc
000000e0: 636a 02bd dafc f73c fe9b ccbb 5e83 1ebd
000000f0: 3ed6 6ebd d0a9 c8bc 8e53 f6bc e931 6c3c
00000100: 9197 9e3d 5b2b 67bd afd5 a43d 73c3 a33a
00000110: 274e 6fbd 386f 1d3d 4486 15bc daa6 863d
00000120: 1bc4 f9ba a7a5 003d 04b8 34bd 653f e8bc
00000130: 3bfe 88bd 2028 9fbd c700 a9bd 01cb 283d
00000140: 9a77 04bd b0f7 ce3c 202d b73c 507b 433c
00000150: 0efb 643d 70ec 9cbd 16ba 2a3d f0b2 2ebd
00000160: 08a2 ccbc 36c5 cbbc bd27 9d3d b8d3 b93c
00000170: 2847 a8bc 1b2b 04bd 1016 dc3c bbc3 30bd
00000180: dc0f 933d 7530 333d 0926 133d 8a8b 40bd
00000190: 9fb3 7fbc 7f9d d83c b38e 19bd 7c48 843d
000001a0: 84aa 3cbd a6e4 843b 575c acbd 795c 23bd
000001b0: 0175 4d3d 84a7 2c3d 0eea c5bb d43b 81bd
000001c0: 465a e6bc 6064 3b3b 01d8 73bd a0dc 7bbd
000001d0: b6cd 6f3d 6865 92bd 2699 9dbd 7b4d 9e3d
000001e0: 64df a1bd 1012 313c c49b afbc 240d 363d
000001f0: b40c da3c 2015 8e3c ef5a 93bd 2ad6 3f3d
00000200: d29b 10bd 1d39 bb3c c983 013c fa33 3d3d
00000210: c760 6a3b 50c9 083d 1451 34bb c633 8a3d
00000220: c3f1 a63c d98c 1abc 4402 9a3d ed7b 22bd
00000230: 145a 31bc 431c 9cbb d9cb 933d 193c 6b3d
00000240: 8a64 5c3d 0eb0 653d 76ca 683d 7412 e3bc
00000250: c653 78bd 3105 803d 54c2 92bc 828e 99bc
00000260: 288b 643c 4048 f7bc 26d8 6d3d b28c 493d
00000270: 21a6 8a3d a068 3cbb 1af2 483d caab c7bc
00000280: ee1e 9cbd ce72 30bd 5208 423d f714 88bd
00000290: 514b 35bd 040d 26bd 5b3d 1cbd 74bc febc
000002a0: 3be4 913d 3801 e4bc 205d 8abc 40df ea3c
000002b0: f37f 873d 6ed9 95bc 0038 6f39 3822 d33c
000002c0: 1812 5fbc c664 2a3d 702b 8c3c 641c e03c
000002d0: 80dc f03a 8e09 013d 607d 0b3c 9abe 623d
000002e0: 4810 1f3c b77b 2bbd 0264 733d 1519 903d
000002f0: bcc4 b5bc fa64 96bd e954 33bd d2e5 a5bc
00000300: 05a8 7abd 3308 913d f037 23bc bacb c1bc
00000310: 4423 27bd 00e0 1bbd fcde a23c 2691 bebc
00000320: c9b8 6bbd d78e 4dbd 52b9 043d 7a41 0f3d
00000330: 2c8d 7fbd fd15 8b3d 9095 773c 15b1 8b3d
00000340: f607 483d 2a8e 4abd 4a04 d73c 022f ba3c
00000350: 4645 c4b8 962e 9d3d 8649 80bc 6736 dd3c
00000360: bc4e 41bc 6226 23bb 4086 473c 0ca6 743c
00000370: 5185 0dbd 24d7 05bd b96e 273d 6d81 923d
00000380: baae 68bc e076 2d3d bd7b 9c3d cf18 bc3c
00000390: 3abb debc d85d 89bb ef9f 7d3d 4446 b0bc
000003a0: 948e 943d 2829 5c3d fe98 15bd 2d64 983d
000003b0: 8499 373d 03b9 5c3d 0b50 8dbd e38e 883d
000003c0: 28d7 bc3c 6150 85bd 00fe 3ab9 9c7c f43c
000003d0: aa2c 583d 7093 803c d484 9d3c 00aa 0739
000003e0: 14d3 3cbd 633f 86bd 78a3 c23c 9658 543d
000003f0: 473c 64bd 4721 9a3d bc92 2e3d 6e39 6b3d

fc1.bias f4 [300]
0.22909819 0.2986243 0.05536569 0.19266352 -0.13436781 -0.2676558 -0.0461465 -0.07770197
0.019556835 -0.016055532 0.023743138 -0.14938845 -0.011153509 -0.2891514 0.08431653 0.20146535
0.06726041 0.31725422 -0.031430617 -0.19929755 -0.023749305 -0.0006625578 -0.20965181 0.22068559
0.20569138 0.076103725 -0.022954047 0.058477618 0.03235887 -0.28769264 -0.07932951 -0.048385132
-0.032074887 0.027269982 -0.04105915 -0.019368816 0.16944893 0.06729356 0.12844822 0.061744425
0.047443 -0.15860468 0.039715074 -0.009838417 0.09274052 -0.0070505217 0.031171262 0.043701965
0.0741303 -0.0013639686 0.04045406 0.113413796 -0.074026905 -0.057517342 -0.045095105 -0.031158797
-0.28282255 -0.18082602 0.074369654 0.049325004 -0.04082571 0.026950829 0.20456858 -0.024933796
0.067668475 0.044845488 -0.07052438 -0.00042895973 -0.16135417 0.075749405 -0.27367732 0.120906495
-0.20152862 0.15330099 -0.054421995 0.30868378 -0.008329995 0.28870374 -0.06355229 -0.028706558
0.13835308 0.095658116 0.1133306 -0.009858869 -0.10792149 -0.05308727 -0.054489136 -0.23003243
-0.030165756 -0.2655641 0.006448783 -0.033294857 0.0086134225 0.11789083 0.05646956 -0.24940424
0.24633373 0.18980467 0.06666698 -0.03628347 -0.20517342 -0.19830123 0.013032302 0.07285982
0.045939635 0.2570779 0.054898478 0.0077515203 0.13991655 -0.077504456 0.033575177 0.031748455
-0.14339289 -0.0693265 -0.015519664 -0.13173626 0.033778034 -0.052078567 0.0035520303 -0.07429439
0.031477816 0.014836453 0.080000296 -0.1012985 -0.22539921 -0.20293494 -0.0599396 0.055703655
0.14200068 0.11044007 -0.06339285 -0.036635246 0.26751685 -0.038334936 0.12185581 -0.06436468
-0.21849322 -0.082603574 -0.21797745 0.20292641 0.09173754 -0.049482033 -0.0666886 -0.07337348
-0.04911507 0.061562557 0.0484947 -0.14717124 -0.073221155 -0.02593758 0.30535552 -0.1754847
0.24348395 0.015497706 0.14306186 0.0350796 0.22743592 0.11446283 -0.06012136 0.077227496
0.032322474 -0.068407394 -0.16478148 0.07600554 0.15531597 0.0053654984 -0.19218393 0.019043477
-0.1550519 -0.044204798 -0.029648352 -0.056731313 0.0031802845 -0.035913847 0.033577017 -0.056366924
-0.24075031 0.27261603 0.014929645 0.16918665 0.07160309 -0.04001301 -0.030218756 -0.12552454
-0.052175496 0.12843136 0.19728431 -0.21996601 -0.20191388 0.26441354 -0.025463114 -0.052435532
-0.28004646 -0.19208077 -0.026786732 -0.075717434 -0.002597563 0.20701316 -0.0011526123 0.13873565
0.20277938 0.024290219 0.0705777 0.0034296066 0.04204027 -0.18123467 0.02883916 0.09685006
-0.16539654 0.12153432 0.130732 0.073683016 -0.070936434 0.023045853 0.0955019 -0.20993212
0.17657913 0.033728316 -0.016945073 0.043164298 0.071531124 0.019325836 -0.14350016 0.14107202
0.14928056 -0.021623474 0.31402847 -0.22552276 -0.0008662939 0.03372531 0.23542722 -0.03197121
0.061551116 -0.0138004115 -0.013603933 -0.30583107 0.042795815 -0.30518195 0.036970347 0.036568314
-0.009953298 0.1874909 0.05298794 -0.0021120384 0.014606475 0.05482411 -0.014517158 0.0047550797
-0.0741193 -0.017883217 0.0045297234 0.066903286 0.2396953 0.047844052 0.02073621 -0.1906981
00000000: b798 6a3e 49e5 983e 22c7 623d 9649 453e
00000010: b797 09be 2e0a 89be 1d04 3dbd 3622 9fbd
00000020: a835 a03c e486 83bc f880 c23c 49f9 18be
00000030: 35bd 36bc a70b 94be 25ae ac3d ef4c 4e3e
00000040: d3bf 893d 256f a23e 64bd 00bd a814 4cbe
00000050: e78d c2bc 80af 2dba f7ae 56be 67fb 613e
00000060: c3a0 523e 45dc 9b3d 200a bcbc 3a86 6f3d
00000070: bc8a 043d 734c 93be 8377 a2bd 7d2f 46bd
00000080: f560 03bd 4c65 df3c a42d 28bd 5aab 9ebc
00000090: 0584 2d3e 35d1 893d ee87 033e b9e7 7c3d
000000a0: 9753 423d 4469 22be 46ac 223d 5031 21bc
000000b0: beee bd3d 1008 e7bb e05a ff3c d500 333d
000000c0: a0d1 973d 31c7 b2ba 28b3 253d 7e45 e83d
000000d0: 6b9b 97bd 4e97 6bbd a5b5 38bd bc40 ffbc
000000e0: 1ece 90be 752a 39be 1e4f 983d 0409 4a3d
000000f0: dc38 27bd fcc7 dc3c 6d7a 513e f641 ccbc
00000100: c595 8a3d e7af 373d 166f 90bd 00e6 e0b9
00000110: 073a 25be 8122 9b3d 6f1f 8cbe d39d f73d
00000120: 855d 4ebe effa 1c3e 99e9 5ebd cd0b 9e3e
00000130: 887a 08bc fad0 933e b427 82bd 042a ebbc
00000140: 6eac 0d3e 67e8 c33d e019 e83d 1887 21bc
00000150: f105 ddbd 0a72 59bd 0030 5fbd 9f8d 6bbe
00000160: 2d1e f7bc 05f8 87be 5050 d33b 3060 08bd
00000170: 501f 0d3c bf70 f13d a04c 673d d363 7fbe
00000180: e93e 7c3e 285c 423e b388 883d fa9d 14bd
00000190: fb18 52be 7a0f 4bbe 7085 553c 8837 953d
000001a0: 332b 3c3d b79f 833e 3add 603d 7700 fe3b
000001b0: 4946 0f3e a8ba 9ebd 2086 093d ab0a 023d
000001c0: 96d5 12be 0dfb 8dbd 3046 7ebc dfe5 06be
000001d0: d65a 0a3d 5650 55bd 2ec9 683b a827 98bd
000001e0: e2ee 003d 9814 733c 32d7 a33d 9775 cfbd
000001f0: 0dcf 66be 2dce 4fbe 3a83 75bd 8429 643d
00000200: a068 113e 672e e23d 1cd4 81bd d70e 16bd
00000210: f8f7 883e 1805 1dbd 8a8f f93d a1d1 83bd
00000220: b0bc 5fbe 102c a9bd 7b35 5fbe f1cb 4f3e
00000230: e4e0 bb3d acad 4abd 0894 88bd d644 96bd
00000240: e22c 49bd 0529 7c3d 61a2 463d 0fb4 16be
00000250: f9f4 95bd 0c7b d4bc 8f57 9c3e 43b2 33be
00000260: db53 793e 17ea 7d3c cf7e 123e a0af 0f3d
00000270: f6e4 683e 7d6b ea3d d141 76bd 7329 9e3d
00000280: 9264 043d 2d19 8cbd 7abc 28be cba8 9b3d
00000290: 260b 1f3e 10d1 af3b ddcb 44be 1101 9c3c
000002a0: edc5 1ebe 1710 35bd 1ae1 f2bc 185f 68bd
000002b0: 526c 503b 661a 13bd 0e88 093d 01e1 66bd
000002c0: 4087 76be 5494 8b3e 789b 743c 443f 2d3e
000002d0: a4a4 923d afe4 23bd 538d f7bc 8189 00be
000002e0: f9b5 55bd 8383 033e e604 4a3e c53e 61be
000002f0: 83c2 4ebe 3661 873e 0598 d0bc a4c6 56bd
00000300: 4062 8fbe d2b0 44be d96f dbbc be11 9bbd
00000310: e03b 2abb 42fb 533e 4013 97ba b810 0e3e
00000320: 66a5 4f3e 48fc c63c 0b8b 903d 40c3 603b
00000330: 6b32 2c3d 9595 39be 1a40 ec3c 5359 c63d
00000340: b65d 29be fce6 f83d 9cde 053e 1fe7 963d
00000350: 1f47 91bd a8ca bc3c 8096 c33d 72f8 56be
00000360: 29d1 343e b426 0a3d 65d0 8abc 0ccd 303d
00000370: e97e 923d 3751 9e3c b5f1 12be 2f75 103e
00000380: 01dd 183e b623 b1bc 57c8 a03e 70ef 66be
00000390: 0018 63ba 8d23 0a3d d513 713e 3ef4 02bd
000003a0: 061d 7c3d 1f1b 62bc 08e3 5ebc e495 9cbe
000003b0: aa4a 2f3d cf40 9cbe 386e 173d a8c8 153d
000003c0: 2813 23bc 9dfd 3f3e e209 593d 206a 0abb
000003d0: ff4f 6f3c 3f8f 603d 60d9 6dbc 80d0 9b3b
000003e0: dccb 97bd d37f 92bc 136e 943b 9704 893d
000003f0: af72 753e 20f8 433d fcde a93c 5d46 43be

fc2.weight f4 [100, 300]
-0.012576208 -0.024184687 0.044755615 -0.04056121 0.07183458 -0.019396145 0.00055257976 -0.051021557
-0.051508084 0.032116823 0.019441284 0.049801137 0.012148241 -0.014950923 -0.019287061 -0.033266444
-0.011011772 -0.011309111 -0.038157232 0.044270094 -0.040590025 -0.052506153 0.022073347 0.037194323
0.01790544 0.04935479 0.011828005 -0.032877393 -0.028267073 0.031595804 0.0578046 -0.04383427
0.011021602 -0.049006727 0.007807107 -0.050779622 0.028473089 0.019412905 0.02115994 0.06001308
-0.051838297 -0.012995613 -0.008403256 0.0084235 0.009973826 -0.0058743544 -0.036707282 0.036473587
-0.025727551 0.045148462 -0.02838484 0.024910295 -0.04019563 0.0069197416 0.009440333 0.04691694
0.07933575 -0.004155498 0.023140732 -0.037488624 0.019083781 0.052898444 0.027593821 0.024812616
-0.02227049 0.030576421 -0.002504114 -0.032305278 0.04145508 -0.045570873 0.030160258 -0.039453186
0.040798463 0.060789626 0.053221658 -0.0014279534 0.005164176 0.041508134 -0.0286179 -0.052254163
-0.020806374 0.025364373 0.040498514 0.012738027 -0.037577666 -0.012039681 -0.052013204 -0.020944858
0.025680974 -0.025977764 0.031359546 -0.023175534 -0.001784768 -0.05757364 -6.076823e-05 0.015076634
0.010827216 0.054644678 -0.03327419 -0.042688865 0.022135664 0.041497268 -0.03962654 0.04683548
-0.010309651 -0.0252045 -0.023437537 -0.0533248 0.024581457 0.033857476 0.053959943 -0.017357487
-0.05111245 0.038794883 -0.024022777 -0.014018087 -0.0014642552 0.027089655 0.0370525 -0.019910045
0.050103866 0.016782641 0.0010944691 0.04560592 0.021661637 -0.055691183 0.0017052541 0.03557572
-0.050779033 -0.034248818 -0.043754622 0.018107401 0.04437813 0.033607997 -0.03937448 -0.04939353
0.031819735 -0.03454057 0.0073129344 0.041965116 -0.0751518 -0.041059263 -0.031124396 -0.05224052
-0.0120228715 -0.13361275 -0.015176312 0.0006619198 0.041545726 0.05175104 0.025117004 -0.057939686
-0.029971374 0.06252198 -0.010645711 0.02895815 0.031822618 -0.016934864 0.007967133 -0.046352312
-0.024401654 0.051139586 0.0054258998 -0.00597813 0.022441514 -0.013139762 -0.008433368 0.049433984
-0.0432014 -0.03695142 0.022882607 0.031886254 -0.045227986 0.011668608 -0.0036951303 -0.006365679
0.033916395 -0.03861906 -0.029386334 0.023633506 0.034295816 -0.04894426 -0.012796692 0.02829184
0.004838012 -0.05297817 -0.0015103869 -0.011962092 0.066334225 0.06166193 0.009140522 -0.047306556
-0.0033573506 0.03380477 0.05569817 0.006976396 0.04680863 0.061480008 -0.05332861 0.017248224
0.030878488 0.01094231 -0.009925574 -0.015089519 -0.0009111881 0.04576133 0.047149442 -0.005977433
-0.015247331 0.005950078 0.0016882645 -0.047283843 -0.05123924 0.035947412 -0.0055327113 0.032474093
-0.03799291 0.024536327 -0.017379994 -0.02021918 0.019513875 -0.017964888 -0.04044404 0.015006181
-0.046385344 0.019462325 0.0013751655 -0.008389794 0.005618684 0.018347066 0.036848135 -0.041000955
-0.008506663 -0.043361872 0.059436765 0.043487497 -0.050357834 0.045658763 -0.03787586 0.01375867
-0.050157525 -0.037718832 -0.0122621395 -0.017266091 -0.049855124 -0.0032843028 -0.020336458 -0.03185558
-0.044383805 -0.015170671 0.026840832 0.027102418 -0.017067375 -0.04678316 -0.010583655 0.014084305
00000000: 710c 4ebc f71e c6bc aa51 373d 8323 26bd
00000010: 021e 933d aae4 9ebc 00db 103a fbfb 50bd
00000020: 24fa 52bd ee8c 033d 5443 9f3c 47fc 4b3d
00000030: 6a09 473c b7f4 74bc e6ff 9dbc 6542 08bd
00000040: b86a 34bc d949 39bc c24a 1cbd 8f54 353d
00000050: ba41 26bd b110 57bd 2ad3 b43c 1359 183d
00000060: 6eae 923c 4028 4a3d 40ca 413c 72aa 06bd
00000070: 5990 e7bc 9a6a 013d 84c4 6c3d 908b 33bd
00000080: f393 343c 47bb 48bd c3d2 ff3b 4bfe 4fbd
00000090: 6540 e93c d007 9f3c 9c57 ad3c 46d0 753d
000000a0: 6554 54bd 8deb 54bc cfad 09bc b802 0a3c
000000b0: 4269 233c a87d c0bb 605a 16bd 5465 153d
000000c0: 96c2 d2bc 98ed 383d 5387 e8bc ad10 cc3c
000000d0: 2ca4 24bd 00bf e23b a0ab 1a3c fa2b 403d
000000e0: c87a a23d d82a 88bb a291 bd3c ac8d 19bd
000000f0: 9755 9c3c 0aac 583d 700c e23c d443 cb3c
00000100: 9a70 b6bc 677b fa3c 101c 24bb 8a52 04bd
00000110: cdcc 293d 86a8 3abd a512 f73c aa99 21bd
00000120: 4a1c 273d 8bfe 783d f4fe 593d 2a2a bbba
00000130: 4038 a93b 6f04 2a3d 1670 eabc 7608 56bd
00000140: 2172 aabc f2c8 cf3c c5e1 253d 28b3 503c
00000150: 0aeb 19bd 1542 45bc cc0b 55bd 8d94 abbc
00000160: e860 d23c 52cf d4bc de72 003d 9eda bdbc
00000170: e0ee e9ba 56d2 6bbd 64e1 7eb8 fc03 773c
00000180: a364 313c 19d3 5f3d 844a 08bd 85da 2ebd
00000190: da55 b53c 0af9 293d 704f 22bd 8fd6 3f3d
000001a0: cfe9 28bc ab79 cebc 1400 c0bc 1b6b 5abd
000001b0: 0d5f c93c 23ae 0a3d 1a05 5d3d 4a31 8ebc
000001c0: 4a5b 51bd 62e7 1e3d 6acb c4bc 1eac 65bc
000001d0: 40ec bfba 20eb dd3c 5dc4 173d 641a a3bc
000001e0: b639 4d3d c07b 893c 4a74 8f3a 46cd 3a3d
000001f0: bf73 b13c 701c 64bd d582 df3a d9b7 113d
00000200: adfd 4fbd 7d48 0cbd 0c38 33bd f955 943c
00000210: d8c5 353d 8aa8 093d 2247 21bd df50 4abd
00000220: 6955 023d 6a7a 0dbd 57a1 ef3b 9de3 2b3d
00000230: 30e9 99bd c22d 28bd 97f8 febc 28fa 55bd
00000240: 94fb 44bc c8d1 08be 11a6 78bc b084 2d3a
00000250: da2b 2a3d e6f8 533d 2dc2 cd3c 2a52 6dbd
00000260: 8786 f5bc 860b 803d 596b 2ebc a439 ed3c
00000270: 6f58 023d fcba 8abc 9488 023c ecdb 3dbd
00000280: fae5 c7bc be77 513d bfcb b13b 30e4 c3bb
00000290: 44d7 b73c 2848 57bc 1c2c 0abc 4a7b 4a3d
000002a0: f4f3 30bd 5f5a 17bd 4e74 bb3c 299b 023d
000002b0: fb40 39bd b02d 3f3c 002a 72bb 3097 d0bb
000002c0: ebeb 0a3d 052f 1ebd 9cbb f0bc 0e9b c13c
000002d0: c579 0c3d c779 48bd 37a9 51bc 4ac4 e73c
000002e0: 3088 9e3b a3ff 58bd 2df8 c5ba a6fc 43bc
000002f0: 3dda 873d 3891 7c3d 21c2 153c 85c4 41bd
00000300: ff06 5cbb df76 0a3d c423 643d 409a e43b
00000310: 68ba 3f3d 76d2 7b3d 1a6f 5abd 264c 8d3c
00000320: e2f4 fc3c 6047 333c e09e 22bc 083a 77bc
00000330: ccdc 6eba 3b70 3b3d c61f 413d 58de c3bb
00000340: f1cf 79bc dff8 c23b c248 dd3a b4ac 41bd
00000350: 3de0 51bd 983d 133d bf4b b5bb 8e03 053d
00000360: 749e 1bbd 6800 c93c 7d60 8ebc b2a2 a5bc
00000370: 90db 9f3c 1a2b 93bc a6a8 25bd 7cdc 753c
00000380: 8ffe 3dbd 746f 9f3c e63e b43a 5975 09bc
00000390: f01c b83b 964c 963c 12ee 163d 9ef0 27bd
000003a0: 885f 0bbc 389c 31bd f773 733d f21f 323d
000003b0: 0444 4ebd af04 3b3d b823 1bbd 0b6c 613c
000003c0: fa71 4dbd 107f 1abd 24e7 48bc 9e71 8dbc
000003d0: e334 4cbd 753d 57bb a598 a6bc ff7a 02bd
000003e0: cbcb 35bd 688e 78bc 4ee1 db3c e405 de3c
000003f0: e1d0 8bbc b39f 3fbd 1167 2dbc dbc1 663c

fc2.bias f4 [100]
-0.28072503 -0.27410015 0.058694888 0.041633382 0.029496675 0.039970342 0.07982568 0.003346283
0.27517575 -0.17530234 -0.20716742 -0.26640812 -0.19406049 0.050462127 0.26426974 -0.24339305
0.19760133 -0.009550389 -0.2746918 -0.0022761442 0.009965092 -0.09438004 -0.24051517 0.23632355
-0.0016198732 0.28869614 0.007562792 -0.29353705 -0.016692143 -0.03332396 0.26091394 0.07496992
0.26732972 0.05653906 0.31894436 -0.004386653 -0.02258537 -0.2597065 0.011558862 -0.22203533
0.042000096 -0.00059398636 0.052209537 -0.039616723 0.076643415 -0.013059263 -0.23431845 0.259003
0.011531651 0.077608004 -0.046551965 -0.051308133 0.26552367 -0.13077384 0.03019914 0.22144476
-0.28589502 -0.04959723 0.2801604 0.20059563 0.23276693 -0.18941212 0.011590675 0.2520865
-0.26990443 0.01668951 0.0364701 -0.2840016 0.0006226562 -0.21127895 -0.22067836 0.036616784
0.039620772 0.18762363 -0.016744733 0.2073022 -0.050166737 -0.030624248 0.09863764 0.037259616
-0.021335522 0.05471933 0.2591417 0.29227516 -0.27173316 -0.025256688 -0.26858488 0.03483472
0.22175354 -0.035987534 -0.25036925 -0.013838678 0.028343366 -0.27677828 -0.007606175 0.25087336
-0.18816546 -0.03607066 0.0055385455 0.033660084
00000000: 31bb 8fbe db56 8cbe 0d6a 703d c487 2a3d
00000010: 03a3 f13c f1b7 233d a57b a33d 504d 5b3b
00000020: d6e3 8c3e 7582 33be b223 54be a566 88be
00000030: cbb7 46be 60b1 4e3d 5d4e 873e 073c 79be
00000040: 0158 4a3e 3c79 1cbc 67a4 8cbe 5d2b 15bb
00000050: a044 233c 534a c1bd 9c49 76be cdfe 713e
00000060: ed51 d4ba fbcf 933e 4cd1 f73b 7d4a 96be
00000070: f6bd 88bc b47e 08bd 8396 853e d489 993d
00000080: 71df 883e 8095 673d ad4c a33e eabd 8fbb
00000090: f404 b9bc 40f8 84be 6261 3d3c 3b5d 63be
000000a0: 4b08 2c3d c0b5 1bba abd9 553d 2545 22bd
000000b0: 39f7 9c3d 85f6 55bc 2df1 6fbe 0b9c 843e
000000c0: 40ef 3c3c f2f0 9e3d 46ad 3ebd 7a28 52bd
000000d0: b8f2 873e 94e9 05be 3064 f73c 6ac2 623e
000000e0: d560 92be 7726 4bbd 2f71 8f3e f168 4d3e
000000f0: 745a 6e3e 40f5 41be d1e6 3d3c 7b11 813e
00000100: ea30 8abe 70b8 883c ac61 153d a868 91be
00000110: c039 233a 8259 58be 82f9 61be 7bfb 153d
00000120: 6449 223d 6920 403e 402c 89bc 0747 543e
00000130: a37b 4dbd b4df fabc 8802 ca3d 8a9d 183d
00000140: d5c7 aebc 6021 603d 39ae 843e 17a5 953e
00000150: 9c20 8bbe 1de7 cebc f583 89be daae 0e3d
00000160: 5c13 633e aa67 13bd 6630 80be 9fbb 62bc
00000170: 5930 e83c e2b5 8dbe 383d f9bb 7972 803e
00000180: 72ae 40be d4be 13bd b07c b53b 28df 093d

fc3.weight f4 [1, 100]
-0.053092893 -0.01514813 0.058868267 -0.036946908 -0.064749815 0.06973566 0.22324824 0.0037185326
0.07963059 -0.06735382 -0.042372916 -0.020025857 -0.058989745 -0.055478085 0.093081266 -0.0668756
0.08101351 0.007711563 -0.056622837 0.13047323 -0.080413364 -0.09775321 -0.06277039 0.020506237
0.07660633 0.03787239 -0.041324086 -0.02261569 0.017463595 -0.06910094 0.07834245 0.048443306
0.017723244 -0.08709122 0.12266371 -0.026207661 -0.056208465 -0.0060915593 0.09428137 -0.030883845
-0.06263682 0.07205487 0.08393355 0.0028968304 0.1660607 -0.09165355 -0.027359601 0.059055008
0.031511582 0.08383755 -0.08947642 -0.08185511 0.028794466 -0.2776621 0.07703515 0.08771232
-0.061041016 0.023412881 0.0690387 0.03978506 0.017025726 -0.037302054 0.08110888 0.052838087
-0.12934352 0.030402113 -0.0056609954 -0.010950123 -0.07151072 -0.04295978 -0.14041388 0.08256307
0.02881705 0.06354696 0.019187286 0.06821137 -0.03050951 0.0293254 0.20118587 -0.004203975
0.057366185 -0.030255638 0.059234586 0.10066696 -0.088328 -0.113821976 -0.04667155 0.054231
0.056813706 -0.058393326 -0.046689425 -0.056650102 0.17265697 -0.07547167 0.007511899 0.08686852
-0.028194085 0.042328916 0.045567103 -0.00030446993
00000000: ef77 59bd dd2f 78bc da1f 713d a455 17bd
00000010: 8d9b 84bd 92d1 8e3d 309b 643e a0b2 733b
00000020: 5d15 a33d cdf0 89bd 398f 2dbd 440d a4bc
00000030: 3b9f 71bd fd3c 63bd 64a1 be3d 13f6 88bd
00000040: 69ea a53d 47b1 fc3b 59ed 67bd c69a 053e
00000050: c3af a4bd d632 c8bd c38d 80bd b2fc a73c
00000060: c8e3 9c3d 1420 1b3d 7243 29bd 8a44 b9bc
00000070: d00f 8f3c cb84 8dbd 0272 a03d 7d6c 463d
00000080: 5630 913c e25c b2bd 1c37 fb3d 73b1 d6bc
00000090: d93a 66bd b49b c7bb 9716 c13d 1e00 fdbc
000000a0: bc47 80bd 8191 933d 5ae5 ab3d c0d8 3d3b
000000b0: d10b 2a3e dbb4 bbbd 3e21 e0bc aae3 713d
000000c0: 4a12 013d 05b3 ab3d 6a3f b7bd a7a3 a7bd
000000d0: 5fe2 eb3c ba29 8ebe 9bc4 9d3d 84a2 b33d
000000e0: 2506 7abd 5fcc bf3c 2964 8d3d a9f5 223d
000000f0: 8979 8b3c 0aca 18bd 6a1c a63d c06c 583d
00000100: a172 04be da0d f93c df7f b9bb 2568 33bc
00000110: 3674 92bd 98f6 2fbd a8c8 0fbe d416 a93d
00000120: bc11 ec3c e924 823d a82e 9d3c 67b2 8b3d
00000130: 14ef f9bc d23b f03c ab03 4e3e 80c1 89bb
00000140: cef8 6a3d acda f7bc f79f 723d 7b2a ce3d
00000150: 4fe5 b4bd 7f1b e9bd ab2a 3fbd 5321 5e3d
00000160: 7db5 683d d72d 6fbd 693d 3fbd f009 68bd
00000170: fdcc 303e e490 9abd 6026 f63b 1fe8 b13d
00000180: 48f7 e6bc 1661 2d3d 92a4 3a3d 43a1 9fb9
