final_test_/models/pcr_model_1.pt (torch, 317231 bytes, 7 tensors)

c1.weight f4 [10, 1, 9]
000000 93 9c 98 3e 48 9b 89 be 40 c2 24 be 4a cb 80 be
       0.29806957 -0.26876283 -0.16089725 -0.25155097
000010 00 64 9c b9 9e bc 30 be 49 f2 a1 3e 8c 30 c1 bd
       -0.00029829144 -0.17259452 0.3163016 -0.09433088
000020 60 48 91 bd 63 83 aa be a0 67 28 bc b0 c0 61 be
       -0.070938826 -0.33303365 -0.010278612 -0.2204616
000030 8e 20 0f 3e 7b 78 0c be ac b7 f0 3d 80 c6 a3 bd
       0.13977262 -0.13717835 0.11753783 -0.07996845
000040 1c 19 a9 3d 93 5f 40 be 4d 75 7e 3e 48 2c 92 3e
       0.08256742 -0.18786459 0.24849434 0.2854941
000050 28 e1 a9 be c8 68 c8 3d 04 25 30 be 09 a2 7d 3d
       -0.33179593 0.097856104 -0.1720162 0.061922107
000060 a3 27 6e 3e 36 91 80 be 99 37 9e bc f2 a7 f2 3a
       0.23257308 -0.25110787 -0.01931362 0.0018513186
000070 94 ac 56 be 46 f9 3e be 0c c1 a5 3e 8d a6 48 be
       -0.20964271 -0.18649778 0.32373846 -0.19594784
000080 3e 0e 04 3e f8 89 83 be 06 96 60 3e f2 37 3b 3e
       0.12896058 -0.256912 0.2193223 0.1828306
000090 01 22 5f 3e 58 61 a7 be d4 e2 6c be 16 0a 9e 3e
       0.21790315 -0.32691455 -0.23133403 0.3086707
0000a0 db 77 47 bd dd d4 f8 bd 8e 96 2a 3c 53 5c 38 3e
       -0.048698287 -0.121499754 0.010411872 0.18003969
0000b0 2f a8 d3 bc d3 f7 97 3d 85 08 1d be 6f ff 8c be
       -0.025837032 0.074203156 -0.15335281 -0.2753863
0000c0 9c db f7 bc 35 c4 43 bd bc ac 68 3d 64 cd c1 bb
       -0.030256085 -0.04779454 0.056805357 -0.005914377
0000d0 5e bb 83 bd 23 a3 86 3e 7e 46 6a 3e e3 6b 75 be
       -0.06432222 0.26296338 0.22878453 -0.23966937
0000e0 b6 3d 83 be e0 bf 4b be e3 99 04 be 26 e9 9d be
       -0.2563302 -0.19897413 -0.12949328 -0.3084194
0000f0 ac 46 ce 3d 00 cf af bb 30 54 c8 bd 13 6f 33 bd
       0.10072073 -0.0053652525 -0.097816825 -0.0438071
000100 97 ec 9f be 34 a6 84 be e5 41 0a bd 92 a8 42 3e
       -0.3123519 -0.25908053 -0.03375425 0.19009617
000110 7c 3e 68 bc ff e8 89 3e c2 55 38 3d 3d 55 34 3e
       -0.014175054 0.26935574 0.04500366 0.17610641
000120 e7 8f 8d be 5e bf a4 be ea cc 7d 3e 9b 7e 41 be
       -0.2764885 -0.32177252 0.247852 -0.18895952
000130 d0 ad ac 3d f0 34 8a 3c 08 3f 8a be 59 b0 9c 3e
       0.084315896 0.016870946 -0.27001214 0.30603293
000140 56 60 c3 bd 59 f3 a3 bd 6a 65 63 3e 6f b6 96 be
       -0.09539859 -0.08005399 0.22206655 -0.2943606
000150 77 10 a3 3d e0 7d 65 3d 0d ef 08 3e 28 07 92 3c
       0.07962125 0.056028247 0.1337244 0.017825678
000160 00 c2 85 3e c4 61 9d be
       0.26124573 -0.30738652

c1.bias f4 [10]
000000 67 db 9f 3e 00 88 db bc 95 11 4d be 46 04 f2 3e
       0.31222078 -0.026798248 -0.20026238 0.47268885
000010 2b 3f bc be c8 b3 57 be 8c b3 e8 bd 37 2f ba 3e
       -0.36766943 -0.21064675 -0.11362371 0.36364147
000020 a8 96 76 be 80 75 75 be
       -0.24080908 -0.23970604

fc1.weight f4 [300, 160]
000000 6e b8 43 bd 0e 65 47 3d 97 51 06 bd d8 a4 bd 3c
       -0.047783308 0.048680358 -0.032792654 0.023149893
000010 91 76 81 bd 68 6c f2 3c ce 11 3d 3d 5e d7 a0 bc
       -0.06321443 0.029592708 0.046159558 -0.019633945
000020 de 8c d6 bc 18 3c 30 3d 82 38 77 bd 60 4b 13 3b
       -0.026190218 0.04302606 -0.060356624 0.0022475347
000030 2d 46 55 bd d0 3d e4 bb 7d ca 83 3d 7c 9b 11 3d
       -0.052068878 -0.0069653764 0.06435106 0.035548672
000040 f0 01 bc 3c 84 d0 9e bc 26 8c 31 bd a7 60 30 bd
       0.022950143 -0.019386537 -0.043346547 -0.043060925
000050 dd 9c 95 3d 44 fc 86 3c f8 dd 59 3c b0 03 40 bd
       0.0730531 0.016477711 0.01329755 -0.046878517
000060 63 c2 95 bd c0 be 17 bc f4 d0 98 3c 0c db b0 3c
       -0.07312467 -0.009261787 0.018654324 0.021588825
000070 3a 50 2d 3d c6 41 67 3d 6e 65 85 bd 9c 8d a3 3c
       0.042312838 0.05645921 -0.06513487 0.019964986
000080 2d d1 34 3d 40 f3 a6 bc 01 0c 96 bd cf 7e c4 bc
       0.044144798 -0.020379663 -0.07326508 -0.023986248
000090 ea 76 e5 3c 77 3d 3b bd 67 4d 91 bd a4 4f fb 3b
       0.028010804 -0.045712914 -0.070948415 0.007669406
0000a0 07 66 1e 3d 7f 8c 9e 3c c1 0e 73 3d ec b4 80 3d
       0.03867152 0.019354103 0.059340242 0.06284508
0000b0 54 1d d5 3c f0 f2 e3 3c 10 16 9d b8 68 c3 14 bb
       0.026014961 0.027825803 -7.490453e-05 -0.002269948
0000c0 ca 40 05 bc bf f0 96 bd bd 90 ca bc c5 b4 a2 bd
       -0.008133123 -0.073701374 -0.02472722 -0.07944635
0000d0 03 e5 1b be 5d 22 e7 3c 11 fe 86 bd 59 51 22 3d
       -0.1522408 0.028214628 -0.06591428 0.03962836
0000e0 1d 3d 85 3d d5 ac c0 bb 55 d0 02 bd e0 a5 90 bc
       0.06505797 -0.005879978 -0.031936962 -0.01765722
0000f0 18 58 96 3d bd 3e 91 3d 03 d3 dc 3c 34 6a c9 bc
       0.07341021 0.070920445 0.026956087 -0.024586774
000100 18 e7 5f 3c 38 68 94 3c b0 4f 86 3b 98 0f 69 3c
       0.013665937 0.018116102 0.004098855 0.014224909
000110 3e 6e 6f bd 5d a7 80 bd 4a 55 65 3d b6 87 75 3d
       -0.058454745 -0.06281922 0.05598954 0.059943877
000120 78 58 2b 3d ea 65 89 bc 0c 66 ca bc 4a 39 7d bd
       0.041832417 -0.01677223 -0.024706863 -0.061822213
000130 71 c3 2a bd 39 d4 2b bd ff 5b 20 3d 20 be d6 3c
       -0.041690294 -0.04195044 0.039150234 0.026213706
000140 d8 32 85 3c 1c 4e 31 3d b6 c2 88 bd 00 f8 12 39
       0.016259596 0.04328738 -0.06677763 0.00014016032
000150 24 42 95 bd 3f f7 95 3d 75 36 98 3d a4 81 35 3d
       -0.07288006 0.07322549 0.07432262 0.044313088
000160 a8 79 91 3c 28 65 f2 bc b2 84 6d 3d 16 6a 40 bd
       0.017758206 -0.02958925 0.057987876 -0.04697617
000170 d5 70 14 3d 46 59 e1 bd c9 88 30 3d fa e7 5a bd
       0.036240418 -0.11003356 0.0430992 -0.053443886
000180 f0 95 09 bc e8 96 c8 3c 3d 47 98 3d e0 8f 79 bc
       -0.008397564 0.02448602 0.074354626 -0.015232056
000190 a2 36 d2 bc 43 81 98 bd 59 6c 94 bd eb ea 26 bd
       -0.025660817 -0.0744653 -0.07247228 -0.04075138
0001a0 98 cc 60 3c a3 43 1b bd 80 43 29 3c 0d a3 84 bd
       0.013720654 -0.0379063 0.010331035 -0.06476412
0001b0 e8 18 9f 3c cc 92 ac 3c 75 9b 9d 3d e8 1c ea bc
       0.019421056 0.021066092 0.07695667 -0.028578237
0001c0 e0 48 51 3d 48 6e 50 bd ee 3a 11 3d ac 30 69 3c
       0.05109489 -0.050886422 0.03545659 0.014232796
0001d0 5f 70 84 bd 82 29 a8 bd 8f 7d bb 3c 4b 41 c9 bc
       -0.064667456 -0.08211042 0.02288702 -0.024567267
0001e0 88 c8 0f bd 15 82 42 bd 65 8f 2d bd 73 7d dc bc
       -0.03510335 -0.047487337 -0.04237308 -0.026915288
0001f0 b6 c4 d8 3c d2 18 84 3d 5d 36 88 bd 0a f5 53 bd
       0.026460987 0.064500466 -0.06650994 -0.05174736
000200 9b 09 39 bd 08 88 16 bc 61 41 84 bd d0 f1 27 3c
       -0.045175176 -0.009187706 -0.064577825 0.010250524
000210 80 87 4c bd 10 ef e4 3b 00 ec 6a 3c a0 24 45 bd
       -0.04993391 0.0069865063 0.014338493 -0.04813063
000220 14 fd 52 bd 60 1d 3c 3b bc 71 c9 bc c8 b4 49 bc
       -0.051510885 0.0028704032 -0.024590366 -0.012311168
000230 00 6c c4 ba a8 5e 05 3d 36 27 98 bd 48 ce f4 3c
       -0.00149858 0.032560974 -0.07429354 0.029883519
000240 e0 d7 12 bc fb 3c 1a 3c eb 33 34 3d 5a 8f 70 3d
       -0.008962601 0.009413953 0.043994825 0.05873046
000250 7a c9 dc 3c 31 de a8 bd 26 f5 c5 bc 68 86 89 3d
       0.02695154 -0.08245505 -0.024164747 0.06715089
000260 15 97 42 bd e0 e0 63 3d 4c 6a 3e bd 66 51 98 3d
       -0.047507364 0.05563438 -0.04648809 0.074374005
000270 9c 84 85 3b 79 5a 12 3d c0 55 b8 3c ee f9 f5 bc
       0.004074646 0.035730813 0.022501826 -0.030026402
000280 d6 33 1f 3d 64 95 81 bd 30 d1 9d 3b 2e f7 99 bc
       0.038867794 -0.06327322 0.004816197 -0.018794622
000290 0a 18 24 3d a0 9a 76 bd 4c 47 22 bd ca d7 60 3d
       0.040061988 -0.060206056 -0.039618775 0.054893292
0002a0 80 f6 e4 3b 3e aa 62 3d ac f0 70 bd c9 b0 82 3d
       0.006987393 0.055338137 -0.058823273 0.06381375
0002b0 26 f9 12 3d 34 a7 2d 3d 0d e5 91 3d be 34 72 3d
       0.035882138 0.042395785 0.07123766 0.05913233
0002c0 42 68 58 bd b4 e5 97 3c 04 1a a5 bc f3 2f 26 bd
       -0.052833803 0.018542148 -0.020154007 -0.04057307
0002d0 e9 d1 9e 3d 70 bc f1 3b 6c 34 2e 3d fa 79 4d 3d
       0.07754881 0.0073772 0.042530462 0.050165154
0002e0 c2 e1 0a 3d 30 f0 9a bb dc bf 3b 3d 58 a1 3e 3c
       0.033906706 -0.0047283396 0.04583727 0.011635147
0002f0 ca d2 3d 3d 52 d6 18 3d 29 49 89 3d 0e 49 61 3d
       0.046343602 0.037313767 0.06703407 0.05500131
000300 7b 0d 83 bd 4f 9a 8f 3c 38 37 4e bc c7 4e 6c 3c
       -0.063990556 0.017529635 -0.012586407 0.014423079
000310 4b 6c 82 bb 39 cc 0b 3d 67 1a 3c bd 91 21 8f bd
       -0.0039801947 0.03413031 -0.045923617 -0.06988824
000320 9b b1 70 3d 5e 49 ba bc 27 2f 76 bd 16 d6 21 bd
       0.058763128 -0.022740062 -0.06010356 -0.03951081
000330 87 cc 15 bd e2 09 35 bc d7 32 83 bc 21 d7 09 bd
       -0.036572006 -0.0110497195 -0.016015453 -0.03365243
000340 31 9b 38 bd 25 80 87 bd e0 d9 6b 3d c8 20 8a 3c
       -0.045069877 -0.066162385 0.05758083 0.016861334
000350 f2 a7 90 bd ee f4 94 bd 7f 31 84 bd 5e 52 4e bd
       -0.07063283 -0.07273279 -0.06454753 -0.05037152
000360 59 38 05 3d 23 b4 32 bc ac 32 8b 3d a6 30 22 bd
       0.03252444 -0.010907206 0.06796774 -0.039597176
000370 12 e5 dc bc a3 81 62 ba 01 69 95 3d a5 84 e5 bc
       -0.026964698 -0.0008640533 0.072954185 -0.028017351
000380 a4 53 97 3c e8 af 37 3d 00 c0 9f 39 d0 5b ce bb
       0.0184725 0.04484549 0.00030469894 -0.006297566
000390 9a 5b 73 3d 90 cf cd 3b 61 48 87 bd 6a d7 47 3d
       0.05941353 0.006280847 -0.06605602 0.04878942
0003a0 e2 b7 1a 3d ba cd 06 bd 76 25 35 3c 2f 13 a9 3c
       0.03777302 -0.03291104 0.011056295 0.02063903
0003b0 e9 4c d0 3b 6e 7e 90 bc 92 56 90 bd 5c 9d f1 bc
       0.0063568247 -0.017638411 -0.07047762 -0.02949398
0003c0 9d 8e 83 bd 6c c8 9a bd 0e 71 df bc 58 ea 69 bc
       -0.06423686 -0.07557759 -0.027275588 -0.014277063
0003d0 c0 41 77 3b 00 68 e6 bb 88 0a 0c 3c f8 1f 09 bc
       0.00377284 -0.0070314407 0.008547433 -0.008369438
0003e0 90 80 30 3d 73 99 92 3d c3 3b 99 bd ce 8e 8b bd
       0.043091357 0.07158174 -0.07482102 -0.06814347
0003f0 5e fe 49 3d 0c 0e b0 bc 4d b9 94 bd 92 27 98 bc
       0.04931485 -0.021491073 -0.07261906 -0.018573556

fc1.bias f4 [300]
000000 b6 a6 b3 bd 1d 55 d2 3b d0 18 29 be 4d 33 69 3e
       -0.08772032 0.0064188377 -0.16513371 0.22773476
000010 8d 15 3a 3d f3 42 63 be 41 b6 46 3e be f4 e1 3d
       0.04543071 -0.22193508 0.19405462 0.11033009
000020 af d0 e3 bd 95 ed ac be 50 1d 16 bc 9f e2 25 bc
       -0.111237876 -0.3377501 -0.009162262 -0.010124831
000030 1f c4 ad bc f8 d3 15 be 61 83 89 3e 62 08 5f 3e
       -0.021211682 -0.14631641 0.26858047 0.21780542
000040 ea a3 33 3d af 82 84 bc 94 57 63 3e 73 5b a5 3c
       0.043857493 -0.016175596 0.22201377 0.020185208
000050 10 0f ce bd 4a 6a 93 bd 0e 9b 71 3b 00 c2 f1 3a
       -0.10061467 -0.071980074 0.0036866101 0.0018444657
000060 8b 90 94 3d e6 eb 74 bc 2f 37 9e 3e de b2 6c be
       0.07254132 -0.014948821 0.30901477 -0.23115107
000070 b9 50 74 be 21 d4 5d 3e 40 6f e6 ba f3 7d 01 3e
       -0.23858918 0.21662952 -0.0017580763 0.12645702
000080 7e d5 88 bd 55 c1 b1 bc da ca 8c bd 06 ed 3d 3d
       -0.066813454 -0.021698633 -0.06874628 0.04636862
000090 9c d1 94 bc 08 16 03 3d 9d fb 2c 3e a4 77 9e 3c
       -0.018166356 0.032003433 0.16892858 0.019344158
0000a0 98 32 45 bd f6 34 6e 3d 38 77 65 3a 8f 31 2f 3e
       -0.048143953 0.058155976 0.0008753422 0.17108749
0000b0 36 7a 0a 3d 19 bd 31 3d 28 0d 84 3e 69 43 84 be
       0.033807956 0.04339323 0.25791287 -0.2583268
0000c0 37 d6 a6 3d f8 f6 13 3e 94 d1 25 3d a7 9a 33 bd
       0.08146327 0.1444968 0.040483072 -0.04384866
0000d0 c5 42 39 be 94 f2 8d bd 0a 87 cb bd bd ce 96 3e
       -0.18091877 -0.06931034 -0.09937866 0.29454604
0000e0 01 b0 44 be 39 63 2a bd 09 42 65 3c 84 07 62 bd
       -0.19207765 -0.041598532 0.013992795 -0.05518295
0000f0 fd 57 80 3e 5f 1e 97 bd 87 4d 09 bd 46 c0 23 3d
       0.2506713 -0.0737884 -0.0335212 0.039978288
000100 9f 17 80 be 30 2c 84 be 18 32 44 3e 7a 60 28 3d
       -0.2501802 -0.25814962 0.19159734 0.041107632
000110 7b 22 fe bd 43 40 81 3d 23 a4 9b bd 2c 65 da 3d
       -0.124089204 0.06311085 -0.07599666 0.10663828
000120 7a ab 75 be 13 26 8a 3e b4 c9 db bc 72 30 4d be
       -0.23991194 0.26982173 -0.026829578 -0.20038012
000130 0f 1c 6e be 87 6b 41 be 14 1e e2 3c a7 7f 37 3d
       -0.23252891 -0.18888675 0.027602233 0.044799473
000140 a7 6c 00 3d d4 f8 79 3e e5 c7 2c bd d8 15 17 3e
       0.03135362 0.24411327 -0.04218282 0.14754426
000150 0f 20 2e 3e 78 c4 68 bd e6 64 08 be 68 89 31 3c
       0.17004417 -0.056827992 -0.1331974 0.010835983
000160 9e 90 57 be 98 e7 18 3c 0f 4a a6 3d eb 12 2f 3e
       -0.21051261 0.00933256 0.08119594 0.1709706
000170 9b 37 73 3c da 13 a4 be 40 ea 80 be 95 f4 3a be
       0.0148448 -0.32046396 -0.2517872 -0.18257363
000180 73 e0 86 be 7b 56 c1 bd 37 b8 a9 3d 9b fa 4c bd
       -0.26343116 -0.09440323 0.08287089 -0.050043683
000190 96 89 4c 3e b5 a2 95 be 23 b0 64 be b3 92 4f 3d
       0.1997436 -0.29225698 -0.22332816 0.050677013
0001a0 c5 02 c7 3d ca 17 b4 be 78 d9 74 3d ae 18 79 be
       0.09717325 -0.351744 0.059777707 -0.24325821
0001b0 39 ce e6 3a f1 e7 91 3c 86 0d d2 bd e5 a9 99 bd
       0.0017609067 0.017810794 -0.10256486 -0.07503108
0001c0 5a 66 91 bd 62 fd ab bc b3 cf 6c be 7b 48 fa 3c
       -0.070996 -0.020994846 -0.23126106 0.03055214
0001d0 a8 a9 33 3d fb ed 04 be 60 86 ec ba a0 7f cf 3c
       0.04386297 -0.12981407 -0.0018045418 0.025329411
0001e0 7f 85 6e 3d ec 64 fb 3a d8 43 e4 3c d2 55 81 be
       0.05823278 0.0019179857 0.027864382 -0.25260788
0001f0 dc df 01 3d 2e 4e 2f be 78 32 42 bc 50 0d 58 3e
       0.03170763 -0.17119667 -0.011852853 0.21098828
000200 16 43 6c be be 96 14 3d d4 00 a9 bd fe 45 90 bc
       -0.23072466 0.03627657 -0.08252111 -0.0176115
000210 3a 20 a0 bd e3 7c 9b bd 69 86 6f bd 6f fc 80 bd
       -0.07818647 -0.075921796 -0.058477793 -0.06298148
000220 d9 a5 2d 3e ef eb 96 bd 84 22 8a bd 80 7f 7c bb
       0.16957797 -0.073692195 -0.067448646 -0.0038528144
000230 5c 4f 2e 3b 1a 3a 8e 3e f9 87 f4 bd b5 af a0 bd
       0.0026597595 0.27778703 -0.11939997 -0.078460135
000240 8c b7 37 be a8 1e 13 3c 2f d4 5b 3e a4 92 bb 3c
       -0.17941111 0.008979477 0.2146766 0.022897072
000250 e7 82 9d 3d 12 c7 10 3e e5 d0 cc 3d c0 fd 2c 3e
       0.07690983 0.1413844 0.10000781 0.16893673
000260 91 4c 78 3e f4 fb 34 bd 14 cb bf bd 0c 3f 92 bd
       0.24247958 -0.044185594 -0.09364906 -0.071409315
000270 56 98 57 be 9e 22 dc 3c b2 11 33 bd d5 c9 39 bd
       -0.21054205 0.026871976 -0.043718047 -0.045358498
000280 c0 b9 24 be 42 bd 12 bd 57 da 8d 3e d6 0a 45 3d
       -0.16086483 -0.03582502 0.27705643 0.048106037
000290 39 8e 55 3d de 69 77 3d ad 00 35 be 1b 11 86 be
       0.052137587 0.060403697 -0.17676039 -0.26184925
0002a0 2d 0c 02 be dc c6 fe 3d 01 74 83 3e 29 b3 03 3d
       -0.12699957 0.12440273 0.2567444 0.032153282
0002b0 43 d0 f0 ba c7 f1 59 3e c5 30 ce bb e4 2a 74 bd
       -0.0018372614 0.21283637 -0.006292435 -0.059611216
0002c0 0a d5 09 3c af 71 38 3e aa fd 71 3d 29 5b 8f 3e
       0.008412609 0.18012117 0.059079804 0.27999237
0002d0 ec 98 c3 bd ea a8 46 3d 1a ea a6 3c c4 03 54 bd
       -0.09550652 0.048500933 0.0203753 -0.051761404
0002e0 da 98 82 3d b5 ac 61 bc 1f 06 61 be a8 7d 45 bc
       0.0637681 -0.013774087 -0.21974991 -0.012053885
0002f0 1b df 8f 3d 52 29 82 bd c5 a2 27 3d be 10 33 bd
       0.07024976 -0.063555375 0.040926713 -0.04371714
000300 8e 00 8e be 9a 00 5d bc 9f 21 83 3e d4 d1 88 bd
       -0.27734798 -0.013488913 0.25611588 -0.066806465
000310 80 93 28 3d 4e 16 11 bd 68 6f f2 3b b4 e6 85 3d
       0.041156292 -0.035421662 0.0073985346 0.06538144
000320 1e bc 5b 3d c5 86 47 be 9f 68 0b 3e 95 66 90 3d
       0.0536462 -0.19485004 0.13614129 0.07050816
000330 d2 74 51 3d cc e2 23 bd fa 05 2c 3d 08 03 76 be
       0.0511368 -0.040011212 0.041997887 -0.24024594
000340 16 2b 9c be a7 02 54 be 63 7c d1 3c 40 ce 76 bd
       -0.30501622 -0.20704137 0.025572008 -0.06025529
000350 54 95 81 3e 13 ef e1 3d d2 cf 14 bd f1 d8 96 3d
       0.2530924 0.11031928 -0.036331005 0.07365597
000360 cc 51 34 3c 09 22 3e bd 67 7c 86 bd 73 d3 09 3e
       0.01100583 -0.046419177 -0.065666966 0.13459568
000370 e3 d5 a6 be 4b 2b 7d 3e d2 05 b5 3e 78 19 65 be
       -0.32585058 0.24723546 0.35356003 -0.22372997
000380 21 d8 59 3e 03 f5 40 3e 14 ab 6c bd 6b 30 45 3e
       0.21273853 0.18843465 -0.05778034 0.19256751
000390 1c f7 54 3d 31 70 8d 3d be d2 c0 bc ce 52 c0 bc
       0.051993474 0.069061644 -0.02353799 -0.023476984
0003a0 9b ab 11 be e6 00 11 be b3 02 22 3e d2 9f df bc
       -0.14225619 -0.14160499 0.15821342 -0.027297888
0003b0 4d 40 e7 3d 1f f9 1d 3e bc 3a d9 bd 44 75 c9 bd
       0.11291561 0.15427063 -0.10606906 -0.0983682
0003c0 4d 11 6f be f1 5a 13 3d 48 e2 8e 3e 91 b1 9a bd
       -0.23346443 0.0359754 0.27907014 -0.07553399
0003d0 13 3b 32 3e 63 fc 9f 3d c8 63 34 bc 91 df 96 3d
       0.17405348 0.07811811 -0.011010118 0.07366861
0003e0 3c f7 da 3c 65 bf 02 be 43 20 90 3d 5f ff 46 be
       0.026729219 -0.12768324 0.070374034 -0.19433354
0003f0 96 21 43 3d 85 51 6a 3d d9 96 ef bd 7d b4 b4 3d
       0.047639452 0.05720665 -0.11698694 0.08823488

fc2.weight f4 [100, 300]
000000 d2 d7 b3 3c 6d 7e eb bc 68 84 db 3c a9 a6 d3 bb
       0.021953497 -0.028746808 0.026796535 -0.0064590764
000010 0e 06 33 bd 3c 59 05 bd 63 ef 74 bc 5a d1 14 bd
       -0.043706946 -0.032555804 -0.014949652 -0.036332466
000020 43 4b 10 bc cf aa 8e bc ac 96 b6 3c 3d 16 01 bd
       -0.008807006 -0.017415432 0.022288643 -0.03151535
000030 33 fc 39 3c fb c0 57 3c 20 9d f2 bc 65 f8 e7 bc
       0.011351633 0.013168569 -0.029615939 -0.028316686
000040 66 9b 3c 3d 04 03 81 bb d3 8d 09 3d f5 a4 c0 bc
       0.046046637 -0.003937127 0.03358252 -0.023516158
000050 11 c6 62 bc cf bb 58 bc d6 ed 34 bd fc 98 13 bd
       -0.013841168 -0.013228371 -0.04417213 -0.03603457
000060 04 eb 20 bc 5b ea 12 3d ff 1f 15 bd a5 73 32 bd
       -0.009821657 0.03586803 -0.036407467 -0.04356732
000070 cb 20 4f bc e9 cf ee bc 2e 3b 40 bd f8 cd 43 bb
       -0.012642096 -0.029151874 -0.04693144 -0.0029877406
000080 c5 7d 39 bd 34 a4 e2 3c 91 71 3f bd dc 0d ac 3c
       -0.04528596 0.027666189 -0.046739165 0.021002702
000090 b6 bf fc bc 00 b0 b6 b9 c6 08 9e bc cc 5c 0d bd
       -0.030853134 -0.00034844875 -0.019291293 -0.034512326
0000a0 b0 54 17 bc 26 a4 7e bd 3f 96 e3 bc 36 81 35 bd
       -0.0092365 -0.062168263 -0.027781604 -0.04431268
0000b0 6f ca 88 bb f3 0f 07 bd 37 fe 07 bd 19 fc 43 3d
       -0.0041745226 -0.032974195 -0.033201423 0.04784784
0000c0 1b 02 28 bd 29 0e e2 3c d8 d8 53 bd 25 11 0a 3d
       -0.041017633 0.027594643 -0.05172047 0.033707757
0000d0 be b9 12 3d 84 97 19 bd b2 9f 02 3d 09 ac 43 bd
       0.03582167 -0.037498012 0.03189058 -0.047771487
0000e0 e8 14 00 3d 38 2a 6b 3d e1 10 1d 3d fa 2d d5 bc
       0.031269938 0.05741331 0.038346175 -0.0260229
0000f0 4b c4 f8 3c 05 0a 84 3c d0 af 5a 3b 30 35 64 bd
       0.030367037 0.016118059 0.0033368953 -0.055714786
000100 ef 18 50 3d dd 4f c6 bc cc 40 79 3a bd eb 1c bd
       0.05080503 -0.024208004 0.00095082517 -0.038310755
000110 c9 67 24 bd a2 4d 2b bd 03 ee 98 3d e8 d2 ee bd
       -0.04013804 -0.041822083 0.07467272 -0.11661321
000120 33 53 cd bc 88 6b cf 3c 5e a5 24 3d c3 a0 0c 3d
       -0.025064087 0.02531983 0.04019677 0.034333
000130 3d b4 2a 3b b8 7c 46 3d b3 ad 2b bd 84 3b 4e 3d
       0.0026047372 0.048458785 -0.0419137 0.050349727
000140 be e1 42 3d 1f b0 5f bd 4a ab cf bc 73 a7 96 bc
       0.047578566 -0.05461132 -0.025350232 -0.018390393
000150 a4 6f 4a bc 80 28 0e 3d 4e 08 e9 bc f8 ba ec 3c
       -0.012355719 0.034706593 -0.028446343 0.028897747
000160 ed d4 82 bd 68 3c ab bb 75 da 21 bd e9 99 bd 3c
       -0.063882686 -0.005225707 -0.039514977 0.02314468
000170 b9 cd e6 bc df 7c 0a bb 55 4b 25 3d fb a3 ad bb
       -0.028174268 -0.0021131558 0.040355045 -0.005299089
000180 00 ba 5e 3d a1 15 ce 3c 47 07 2d bd 52 65 ea bc
       0.054376602 0.025156798 -0.04224327 -0.028612766
000190 56 a3 0b 3d 62 20 e7 bb 47 66 54 bc 76 78 05 bd
       0.034091316 -0.007053421 -0.012963838 -0.032585584
0001a0 36 b0 be bb e5 65 44 bc 82 cd 9c 3c c0 17 9d bc
       -0.005819346 -0.011987184 0.019140963 -0.019176364
0001b0 cf 29 b1 bc ec 3a f7 bb f9 55 ba bb e4 97 94 3c
       -0.021626381 -0.007544866 -0.0056865183 0.018138833
0001c0 70 ee 29 3d 28 f3 48 bc b6 d7 0a bd e4 c8 85 3c
       0.041487157 -0.012265004 -0.033897124 0.016331144
0001d0 90 eb 9a bb e3 94 ec bc e4 03 64 3d 6c 9a 92 bc
       -0.0047277883 -0.028879588 0.055667773 -0.0178959
0001e0 d5 60 37 3c 59 7e 6b 3d 9c 9e 41 bc 03 b2 a1 3c
       0.01119252 0.05749354 -0.011817601 0.019738203
0001f0 98 6c 3a 3c 92 26 8e 3d 34 c3 fb 3c 8b 87 61 3c
       0.01137843 0.069409505 0.030732729 0.013765226
000200 da d6 22 ba 70 44 17 3d 68 03 cc bc 5c a6 f0 3c
       -0.0006211825 0.0369305 -0.024903968 0.029376201
000210 18 b2 8c 3c be 86 ca 3c 48 5a 9a bc 80 ae 97 39
       0.017174765 0.024722453 -0.018841878 0.00028930977
000220 b8 da c5 3c e2 09 26 3c 5e e5 05 3c fb c6 0a bd
       0.024152145 0.010134192 0.008172361 -0.03388117
000230 f3 30 2e 3e 0a 5d 1e 3b 65 36 30 3b c0 74 37 bd
       0.1701086 0.0024164342 0.002688789 -0.044789076
000240 05 e7 3b bd 12 25 c2 bc ec b0 f1 bb bc d8 8d bc
       -0.045874614 -0.023699317 -0.007375827 -0.017315261
000250 f2 d4 37 bd 50 e0 4d 3d 37 61 49 3d dc 05 52 be
       -0.044880815 0.05026275 0.049164977 -0.20510048
000260 1b d0 7a bc b5 0d 37 bd 8f 38 ac 3c aa 2d 22 bd
       -0.015308405 -0.044690806 0.021023063 -0.03959433
000270 e8 c1 b7 3c 9e a1 57 3d 11 f3 3d 3d 10 17 02 bc
       0.022431329 0.052644365 0.046374384 -0.007940069
000280 63 b4 1d bc 1d d7 42 bd 53 3b 50 bc c4 91 90 3c
       -0.009625527 -0.04756843 -0.0127094565 0.017647631
000290 56 f1 75 3d cc 75 50 3d 37 51 56 3d 71 e6 b9 3a
       0.06004461 0.05089359 0.052323546 0.0014183057
0002a0 5f 87 e4 bc 09 28 89 bc 44 2d 55 3c 5d 31 8d 3c
       -0.027896581 -0.016742723 0.01301128 0.017235452
0002b0 7d 3b a7 bb a4 9a 59 3c e4 08 e7 bc 10 72 44 3d
       -0.005103527 0.013281498 -0.028202482 0.04796034
0002c0 b7 4d 74 3d 8f d1 58 bd 0a c1 05 bd ce 24 9a bc
       0.059644427 -0.052934226 -0.0326548 -0.018816378
0002d0 1b f9 26 3d 9a dd 34 bd 77 c8 04 bd 90 0a 44 3d
       0.04076491 -0.04415665 -0.03241774 0.047861636
0002e0 26 6d 9d 3c cb 7a 40 3d 3f 05 98 3a 86 e0 06 bc
       0.019217085 0.046992105 0.0011598243 -0.0082322415
0002f0 d0 21 9e 3b 38 9f f1 3c 50 3e 1d 3d 50 11 60 ba
       0.004825808 0.029494867 0.038389504 -0.00085475016
000300 4e 7e 5d bd e8 4f 2d 3d 67 4d 06 bd 2b a3 98 b6
       -0.05407553 0.042312533 -0.03278866 -4.5489483e-06
000310 b7 d3 58 3d e2 35 53 3d 6a 47 ce bc c1 21 11 bc
       0.052936282 0.05156506 -0.025180537 -0.008858145
000320 a6 0d 4c bc 1c fa c6 bd ec 0f 27 bd e0 8d f9 3c
       -0.012454426 -0.09715673 -0.04078667 0.03046316
000330 88 12 dd bc 10 a4 3e 3c cc 41 4c bc ed 04 62 3d
       -0.026986375 0.011635795 -0.012466859 0.05518048
000340 18 6e 6e bc c9 c6 9e 3b 33 2d 1b 3d c2 b1 59 3d
       -0.014552616 0.0048454744 0.037884902 0.05314804
000350 72 03 19 ba ad a9 ea 3c 04 af d8 3c 7e 5e 56 3d
       -0.0005837 0.02864536 0.026450641 0.05233621
000360 98 68 a8 bd 48 8f 9d 3c d4 45 35 bd 9e 91 0b bd
       -0.08223075 0.01923336 -0.044256046 -0.03407442
000370 3c cd 43 bc c1 68 ff bc f3 74 00 3d ab e0 87 3c
       -0.011950787 -0.03117788 0.03136153 0.016586622
000380 02 a2 49 3d a7 c2 5c 3d ae c5 2b bd 40 5e ba bc
       0.04922677 0.053896572 -0.04193657 -0.02275002
000390 de 7d 6f 3b ff 81 86 3b 3b f8 16 bd 42 6a 84 bc
       0.0036543529 0.004104852 -0.036857825 -0.016163949
0003a0 f8 2a 04 3d 5a f2 69 3d d0 ee 61 3d 62 81 41 bd
       0.03226754 0.05711589 0.05515939 -0.04724253
0003b0 87 22 27 3d cf 70 1a 3c a6 ec 7f 3d 9a 90 46 bb
       0.040804412 0.00942631 0.062481545 -0.0030298592
0003c0 df 01 4f 3d 02 b2 12 bc 2b 7e 12 ba c5 7c 98 3c
       0.050538894 -0.008953573 -0.00055882585 0.018614182
0003d0 82 f5 92 3c 37 34 d8 bd f0 db bd bb 60 e6 43 3c
       0.017939333 -0.10556834 -0.005794041 0.011956781
0003e0 b2 71 49 bd 3e 34 30 3d c0 5f ca 3b 13 03 6e 3d
       -0.049180694 0.043018572 0.006175965 0.0581084
0003f0 9c e9 4c bc 84 1f 4c bd b5 fc fd 3c aa 24 ad bc
       -0.012506869 -0.049834743 0.03100429 -0.021135647

fc2.bias f4 [100]
000000 5e 3b 51 be 74 ed 89 be 6e 61 00 3d 43 4a c0 bc
       -0.20432803 -0.26938975 0.031342916 -0.02347291
000010 50 64 4b be 38 06 3a bd c2 3c 87 be 5f 30 0f 3d
       -0.19862485 -0.045416087 -0.26413542 0.03495824
000020 b6 84 84 3c 20 03 54 bc 16 2d 66 3e bb 7b 13 bd
       0.016176563 -0.012940198 0.22478136 -0.03600667
000030 12 07 6c 3e c6 4e 05 3d e1 bf 05 bd 1d a7 81 3e
       0.23049572 0.032545827 -0.032653693 0.2532281
000040 36 4b 8f be 72 2d 65 3e f1 5f a3 bc e4 ce f8 3c
       -0.2798707 0.22380617 -0.01994321 0.03037209
000050 09 be e1 bc be d1 70 3e 6a 67 5e be 85 bc 93 be
       -0.027556436 0.2351751 -0.21719137 -0.28854766
000060 e9 b5 20 3e 1d 1d 30 be 43 4d 72 be 0e 9b 46 3e
       0.15694393 -0.17198606 -0.23662286 0.19395086
000070 2f cb 2e bd 08 a0 b7 3c d6 34 8e bc 0d 21 4d bd
       -0.04267424 0.022415176 -0.017359179 -0.050080348
000080 45 48 2f bd 53 6b 9a 3e a7 67 f9 3c f1 98 94 be
       -0.04279353 0.30160007 0.030444933 -0.29022935
000090 2f 29 2c 3e 53 a3 57 be a2 61 1b 3e a0 2a 49 be
       0.16812585 -0.21058397 0.15173963 -0.19645166
0000a0 bf 96 d9 3c d0 99 a4 3c 89 6f 09 bb 3e 1c 5a 3e
       0.02656114 0.020092875 -0.002097102 0.21299836
0000b0 c7 93 f9 3b cc e6 31 3e 3a de 07 bd 43 0e 7b 3c
       0.0076164934 0.17373198 -0.033170916 0.0153232245
0000c0 10 eb 96 3e f6 d8 91 be 40 c8 9b 3e 1c 65 87 3c
       0.29476213 -0.2848584 0.30426216 0.016527705
0000d0 50 59 c6 bb ae b6 ec 3c d6 d6 4f be 43 54 97 be
       -0.0060531273 0.028895702 -0.20296797 -0.29556474
0000e0 75 c6 02 3e 15 bb 80 3c dd 81 5e be c2 ed e0 3d
       0.12771018 0.015714208 -0.21729226 0.10982849
0000f0 24 12 c3 3c dc 61 09 3d 5f 42 37 3d e3 1e 78 3e
       0.023812361 0.03354059 0.04474103 0.24230532
000100 93 d5 63 bd 03 48 98 be 8c ed 63 be 4a 67 76 be
       -0.055623602 -0.2974244 -0.22258586 -0.24062839
000110 3b a6 71 be 34 6d 89 3e ed 9a 82 3e 31 8d 7a 3e
       -0.23598568 0.26841128 0.25508824 0.24467923
000120 df b0 3b bd c8 d7 77 3e 04 45 44 3e de 98 17 3d
       -0.045822974 0.24203408 0.19166952 0.03701102
000130 d0 f5 80 3e 58 bd 95 be db 84 5a bd ec 5e e8 3b
       0.2518754 -0.2924602 -0.053349357 0.0070913937
000140 ea 25 56 3d 80 4e d3 3a 96 d2 4f 3e 44 bf 68 3e
       0.05228225 0.0016121417 0.20295176 0.22729212
000150 1c fc e2 bc 9a a1 24 3d 9a 07 b5 bc 4b 2f 9a 3e
       -0.027708106 0.040193178 -0.022098351 0.30114207
000160 51 08 5f be 70 1e 59 3e b9 7b 83 3e ed ab 96 3e
       -0.21780516 0.21203017 0.2568033 0.29428044
000170 7d 83 fe 3c 62 4e 83 be ce 4d 81 3e 28 dd 80 3e
       0.031068558 -0.2564574 0.25254673 0.2516873
000180 e2 27 59 3e 5c 6d 69 3d 23 7d 34 bd e3 bd 8f be
       0.2120662 0.05698906 -0.044064652 -0.2807456

fc3.weight f4 [1, 100]
000000 6e 1f 5c bd 90 57 73 bd b8 87 9b bd 0b 21 24 3c
       -0.05374091 -0.059409678 -0.07594246 0.010017644
000010 55 56 6b bd b2 07 05 3d 3d ba 5a bd e3 a0 03 3d
       -0.05745538 0.032478042 -0.053400267 0.032135855
000020 57 88 44 3d 49 5c a9 b6 c7 79 5f 3d c1 c9 10 bd
       0.047981586 -5.047336e-06 0.054559495 -0.035348658
000030 53 64 84 3c ca b5 5c bd 38 d8 c7 3d cd 54 aa 3d
       0.01616112 -0.053884305 0.09758037 0.08316956
000040 77 9e c7 bc 2a 42 0a 3d f4 48 5a bd 4c 82 d1 3c
       -0.024367554 0.033754505 -0.05329223 0.025574826
000050 a3 4c 95 bd f8 05 9f 3c 9e 78 80 bd fe 9a a1 bd
       -0.07290008 0.019412026 -0.06273006 -0.078908905
000060 0d 6f 47 3d 3c c8 95 bd d0 8d 18 bd 8d 9d 9a 3d
       0.04868989 -0.07313582 -0.037244618 0.07549582
000070 d7 be cc bc ea 28 3d bd e0 21 0b bd 1a 9b 81 3d
       -0.024993343 -0.046181597 -0.033967853 0.063284114
000080 be da 77 3d dd 3f 9c 3d 3a 03 c0 3d ff c7 b9 bd
       0.060511343 0.076293685 0.093756154 -0.09071349
000090 1c 78 c0 3c 5a e7 ca bc 71 4a d9 3d 75 69 33 bd
       0.023494773 -0.02476852 0.10609902 -0.043801744
0000a0 16 b2 c2 3d 18 53 bf 3c bc 04 81 3d 57 75 7c 3d
       0.095066234 0.023355052 0.06299731 0.06163534
0000b0 65 fd a7 3d f4 42 15 3d e0 07 b8 bc eb 07 85 bd
       0.08202628 0.036440805 -0.022464693 -0.06495651
0000c0 4a 05 bc 3d 29 b0 99 bd 20 6d 6c 3d 12 90 38 3d
       0.09180696 -0.07504303 0.057721257 0.04505927
0000d0 bd 86 93 3d b4 81 63 bd 80 f0 91 bd f5 b8 0a bd
       0.07203434 -0.055543616 -0.0712595 -0.033867795
0000e0 36 37 83 3e 70 d9 2c bc eb 6f 44 bd 61 c8 02 3e
       0.2562806 -0.010549888 -0.047958296 0.12771751
0000f0 0d 56 3f bd 59 4c 9c 3d a1 13 3c 3d 1f 5e 45 3d
       -0.046712924 0.0763175 0.045917157 0.048185464
000100 56 c0 e2 bc fb 9d 90 bd 03 2e 95 bd 5a 9c 08 bd
       -0.027679604 -0.070613824 -0.07284167 -0.033352233
000110 78 06 4c bd 92 40 90 3d 80 48 07 3d c8 ed f9 3c
       -0.049810857 0.07043566 0.033028126 0.03050889
000120 2a 5e 54 3d 58 c7 b4 3c 74 e8 3e 3c 00 c7 26 bd
       0.051847614 0.02206771 0.011652101 -0.040717125
000130 55 7e 9e 3d 37 30 a8 bc 1b 08 63 3c 3a 1d 04 3d
       0.0773894 -0.020530803 0.013856913 0.032254435
000140 01 83 a1 bd 40 8e a6 bc 3b 72 21 3d 31 ad 1a 3d
       -0.07886315 -0.020331502 0.03941558 0.037762824
000150 8c 0c f9 3c 30 5e d1 bb 6b 46 b9 bd 3b 5a 9a 3d
       0.03040149 -0.006389402 -0.09046634 0.07536741
000160 ef 2e a0 bd 47 a6 00 3d 28 cb 91 3d 4a 2f f1 3d
       -0.07821452 0.031408574 0.07118827 0.11776598
000170 83 d5 3e bd 89 3f a5 bd f5 c6 89 3d a1 b6 81 3d
       -0.04659034 -0.08068759 0.06727401 0.06333662
000180 8b c1 c1 3d f8 bc 8f 3c d6 c6 57 bd 0d 80 5c bd
       0.094607435 0.017546162 -0.05267986 -0.053833056
