final_test_/models/pcr_model_1_0.pt (torch, 317231 bytes, 7 tensors)

c1.weight f4 [10, 1, 9]
0.16825685 0.018568546 -0.25814936 -0.27415437 -0.31705508 -0.33270845 -0.32622588 -0.15355703
0.18754199 -0.056530986 0.18001528 0.23141047 0.18920916 0.16943996 0.2880275 0.012433065
-0.031497356 -0.39750066 0.14795476 -0.28756154 0.057334006 0.20304337 0.11338518 0.18996933
0.05808518 0.115794115 0.24017125 -0.0015831888 -0.2709189 -0.017861128 0.23876241 0.03478682
0.035731822 -0.16677324 -0.15960073 0.077801555 0.1272161 -0.25219497 0.31648615 0.111423224
-0.32614693 -0.054801196 0.026590466 -0.18392226 -0.05574879 -0.03224384 0.034157548 0.19238997
0.21831965 -0.1792032 0.18505651 -0.06899471 0.05771186 -0.028905341 0.029833468 -0.16170442
-0.30535465 -0.27277228 0.05181064 0.26756617 -0.24097762 0.26293463 0.13271186 0.08683768
-0.19701049 -0.30130595 0.3219951 -0.25813565 -0.31424487 -0.3032977 0.31502905 0.26876047
-0.16895235 0.27411917 -0.10509102 -0.22150163 0.31113574 0.108673185 0.1069735 -0.3305716
-0.068958074 0.011316985 -0.16630241 -0.12618539 0.13123432 0.12977305 -0.0684813 0.20444229
-0.059792966 -0.30656886
00000000: 864b 2c3e 101d 983c 272c 84be f65d 8cbe
00000010: 0b55 a2be c358 aabe 1407 a7be 0e3e 1dbe
00000020: 020b 403e 098d 67bd ed55 383e def6 6c3e
00000030: 0cc0 413e ab81 2d3e 5778 933e 0eb4 4b3c
00000040: 5f03 01bd 3585 cbbe 7481 173e 443b 93be
00000050: 10d7 6a3d 9aea 4f3e 7d36 e83d 5287 423e
00000060: baea 6d3d 7725 ed3d 74ef 753e 0083 cfba
00000070: e2b5 8abe 8051 92bc 227e 743e a07c 0e3d
00000080: 885b 123d 9bc6 2abe 606e 23be 6c56 9f3d
00000090: f044 023e b31f 81be 790a a23e dc31 e43d
000000a0: bbfc a6be 3877 60bd 40d4 d93c 1e56 3cbe
000000b0: d858 64bd 1e12 04bd c9e8 0b3d e001 453e
000000c0: 308f 5f3e 0b81 37be 747f 3d3e 194d 8dbd
000000d0: 4563 6c3d e5ca ecbc 5165 f43c d895 25be
000000e0: 7257 9cbe cfa8 8bbe 6537 543d 6ffe 883e
000000f0: d6c2 76be 5e9f 863e 9ee5 073e f4d7 b13d
00000100: 1ebd 49be c644 9abe 8bdc a43e 5b2a 84be
00000110: b4e4 a0be d649 9bbe 7d4b a13e f99a 893e
00000120: d801 2dbe 5959 8c3e f639 d7bd 53d1 62be
00000130: 2f4d 9f3e 0c90 de3d ec14 db3d ae40 a9be
00000140: e439 8dbd e06a 393c 2e4b 2abe be36 01be
00000150: 4a62 063e 3ae3 043e ec3f 8cbd 5259 513e
00000160: 78e9 74bd 98f6 9cbe

c1.bias f4 [10]
-0.14327209 0.30733576 -0.23616664 0.28399244 0.2622333 0.097872905 -0.09310476 -0.16462335
0.17127505 0.0717673
00000000: ebb5 12be 1d5b 9d3e abd5 71be 7567 913e
00000010: 7143 863e 9771 c83d b5ad bebd 0693 28be
00000020: ba62 2f3e bcfa 923d

fc1.weight f4 [300, 160]
0.017522238 0.041455097 -0.06287125 -0.07473324 -0.04047076 0.014347956 -0.04979627 0.061091177
0.017854199 -0.075842164 0.03461036 0.014998414 -0.060380414 0.020313457 0.0766468 -0.0548674
0.0075199334 0.04503629 0.06411196 0.07632641 -0.06242836 -0.064062186 0.036450464 0.066840865
-0.074607894 -0.015775664 -0.07527124 -0.08942001 0.009619943 -0.011557112 0.002723231 0.0020147224
0.07533156 -0.03266725 0.032916423 -0.06850146 0.063798554 -0.045811474 0.07441299 0.03166688
0.06344155 -0.04017119 -0.04958742 -0.05566246 -0.06333892 -0.06893496 0.027323034 0.024311023
-0.054523714 -0.0013989583 0.07196542 0.05014824 0.010600835 0.07215708 0.054230697 -0.0014163628
-0.00079678744 0.013545878 -0.05409967 -0.002964653 -0.060507566 0.016082056 0.025934331 -0.07602107
-0.06385944 0.025615193 0.010354981 0.0063167363 -0.012644395 0.057146586 0.023965083 -0.0706942
0.07587344 0.021483079 -0.019901227 0.06410671 -0.024930771 0.03547599 -0.0468842 0.03999813
0.060500406 -0.017245274 -0.0087340865 0.051957935 -0.024623292 -0.010707755 0.048025113 0.026062949
0.058405973 0.02230401 -0.037393134 -0.036973197 0.003310965 -0.016395506 0.037475266 0.049552877
0.030796833 0.070626326 0.02941291 -0.01679726 -0.011279814 -0.06629731 0.037737742 0.047908463
0.026150458 -0.0046073273 -0.065101594 -0.07248266 -0.055721268 0.06301588 -0.11064597 -0.12323614
0.019604877 0.016392633 0.035266474 0.03032507 -0.02354725 -0.026844956 -0.073443845 0.057567887
-0.056391023 0.05389134 0.0060429797 -0.071839795 -0.01455795 0.07669882 -0.048412506 0.010487631
-0.05155773 -0.054502625 0.025374204 -0.048735052 -0.053410046 0.022409387 -0.06302894 -0.03264459
0.077779986 -0.013764523 0.052264713 -0.027159236 0.023588173 0.002933614 0.06510883 -0.06014079
0.00014480203 0.07258565 -0.07828276 -0.053692922 -0.031646345 -0.008755088 -0.033606388 -0.07362308
-0.031773742 0.04965756 -0.07056822 -0.028049268 -0.06397469 0.05033987 -0.01413177 -0.016470574
0.054116227 0.06761191 0.06577996 0.07789152 -0.049100075 -0.07820548 0.05196833 0.019011118
0.074702136 -0.06307052 -0.018098392 0.016657017 -0.0024127662 0.072080694 0.016809143 0.0071460754
-0.06674665 0.019824227 -0.007130414 0.03194581 0.0575177 0.030331923 -0.054081388 -0.018739123
-0.044771988 -0.046389274 -0.014772822 -0.014087112 0.030889763 -0.036760196 -0.10099413 0.000543885
0.031459168 -0.053370014 -0.062763885 -0.010885113 0.07258746 0.046287026 0.06871789 -0.0031248475
0.058797475 -0.007613265 -0.06800511 -0.0097559625 0.015514481 0.05256022 -0.052041154 0.06529166
0.03129814 0.02639921 0.049309082 0.04266645 -0.0034711584 -0.06634691 0.07121297 -0.07289756
0.062648125 0.024103545 0.024950363 -0.017231025 -0.06650233 0.07824571 -0.015590206 -0.019594241
0.07500308 0.013983354 -0.0039750934 -0.078863256 -0.066742234 0.043434963 0.03703864 -0.07563139
-0.001518406 -0.07495083 -0.060987644 0.028254397 -0.0061149746 0.034710146 0.07489104 -0.04395002
-0.02296297 0.05069146 -0.038836367 0.033448096 0.049611315 0.00037556174 -0.07067636 0.026666686
0.05452139 0.028448492 -0.0007709237 -0.03146236 -0.078878224 0.001396804 0.04830739 -0.06084595
00000000: cc8a 8f3c d2cc 293d a4c2 80bd be0d 99bd
00000010: abc4 25bd b013 6b3c 2cf7 4bbd be3a 7a3d
00000020: f842 923c 2353 9bbd 98c3 0d3d e8bb 753c
00000030: 7451 77bd 6868 a63c fff8 9c3d a4bc 60bd
00000040: c669 f63b f977 383d 224d 833d 0551 9c3d
00000050: e1b4 7fbd 0933 83bd 154d 153d dde3 883d
00000060: 06cc 98bd f73b 81bc cf27 9abd d721 b7bd
00000070: f79c 1d3c 0b5a 3dbc 3c78 323b 6f09 043b
00000080: 6f47 9a3d 18ce 05bd 5fd3 063d 7e4a 8cbd
00000090: d1a8 823d d0a4 3bbd d665 983d 21b5 013d
000000a0: a5ed 813d 8c8a 24bd 2e1c 4bbd 52fe 63bd
000000b0: d6b7 81bd c62d 8dbd 8ed4 df3c e927 c73c
000000c0: 4254 5fbd 405d b7ba 9b62 933d 3e68 4d3d
000000d0: 20af 2d3c 17c7 933d 0221 5e3d 40a5 b9ba
000000e0: 80df 50ba 88ef 5d3c 9e97 5dbd a04a 42bb
000000f0: c8d6 77bd 84be 833c 3c74 d43c efb0 9bbd
00000100: bdc8 82bd f4d6 d13c f0a7 293c a0fc ce3b
00000110: 702a 4fbc 8a12 6a3d 6c52 c43c 1fc8 90bd
00000120: 8963 9b3d 48fd af3c e607 a3bc 614a 833d
00000130: 9e3b ccbc 464f 113d a609 40bd 14d5 233d
00000140: 46cf 773d f645 8dbc 6a19 0fbc d8d1 543d
00000150: c9b6 c9bc 946f 2fbc fbb5 443d f781 d53c
00000160: 1a3b 6f3d e6b6 b63c 8b29 19bd 3571 17bd
00000170: c6fc 583b de4f 86bc aa7f 193d f5f7 4a3d
00000180: a449 fc3c 89a4 903d 58f3 f03c 689a 89bc
00000190: f8ce 38bc e2c6 87bd e492 1a3d aa3b 443d
000001a0: 7c39 d63c 10f9 96bb fc53 85bd ca71 94bd
000001b0: fc3b 64bd 780e 813d 5b9a e2bd 3b63 fcbd
000001c0: 689a a03c d849 863c 9473 103d 486c f83c
000001d0: 2ae6 c0bc f4e9 dbbc ba69 96bd 4ecc 6b3d
000001e0: 46fa 66bd 2abd 5c3d 3004 c63b be20 93bd
000001f0: 7884 6ebc 4514 9d3d 314c 46bd 50d4 2b3c
00000200: 332e 53bd 253e 5fbd 90dd cf3c 689e 47bd
00000210: 7ec4 5abd e493 b73c 5115 81bd 55b6 05bd
00000220: 1d4b 9f3d 9884 61bc 8613 563d 0c7d debc
00000230: fc3b c13c e041 403b c757 853d 3056 76bd
00000240: 00d6 1739 c9a7 943d b652 a0bd 1ced 5bbd
00000250: 999f 01bd 8071 0fbc daa6 09bd b3c7 96bd
00000260: 2f25 02bd ba65 4b3d 1286 90bd 94c7 e5bc
00000270: 2a05 83bd 2e31 4e3d f088 67bc 4ced 86bc
00000280: faa8 5d3d 1d78 8a3d a5b7 863d 9785 9f3d
00000290: 291d 49bd 322a a0bd bedc 543d 34bd 9b3c
000002a0: 6ffd 983d 1e2b 81bd 1443 94bc 4c74 883c
000002b0: 801f 1ebb 0b9f 933d 54b3 893c a029 ea3b
000002c0: 78b2 88bd 6b66 a23c 3fa6 e9bb 9cd9 023d
000002d0: ae97 6b3d a77a f83c 7284 5dbd ca82 99bc
000002e0: d562 37bd ae02 3ebd b509 72bc a1cd 66bc
000002f0: 870c fd3c dc91 16bd 03d6 cebd 8193 0e3a
00000300: 54db 003d 849a 5abd 5a8a 80bd 7957 32bc
00000310: bca8 943d 7797 3d3d f7bb 8c3d 3eca 4cbb
00000320: 9fd5 703d b278 f9bb 4346 8bbd 79d7 1fbc
00000330: 7330 7e3c 6349 573d 1b29 55bd a2b7 853d
00000340: 7a32 003d 2843 d83c 52f8 493d 04c3 2e3d
00000350: 607c 63bb e4e0 87bd 1bd8 913d 514b 95bd
00000360: a94d 803d cc74 c53c b464 cc3c 1428 8dbc
00000370: 6032 88bd 493f a03d 106e 7fbc 1a84 a0bc
00000380: 379b 993d 701a 653c 8041 82bb 0f83 a1bd
00000390: 27b0 88bd dce8 313d d4b5 173d a1e4 9abd
000003a0: 4005 c7ba d27f 99bd 2ece 79bd c475 e73c
000003b0: 2060 c8bb 3a2c 0e3d 7960 993d f004 34bd
000003c0: d71c bcbc d9a1 4f3d e212 1fbd df00 093d
000003d0: 3c35 4b3d 0be7 c439 c4be 90bd 1874 da3c
000003e0: d251 5f3d d00c e93c d017 4aba adde 00bd
000003f0: e88a a1bd f714 b73a f8dd 453d 9a39 79bd

fc1.bias f4 [300]
0.08460725 0.27648738 -0.06831626 0.05344159 -0.44450462 -0.085219234 0.009700984 0.38264248
-0.036899272 -0.030948361 0.4039274 -0.39720458 -0.02206967 -0.005383596 0.034503393 -0.029370267
-0.47582555 -0.0098399 -0.007645914 -0.082154214 -0.027028117 -0.04080904 0.006010458 -0.35504687
-0.07270342 0.067960866 0.031921696 0.01487811 -0.21524772 -0.038581308 -0.05280018 0.2863766
0.18709904 0.06501115 -0.02049588 0.012634466 0.08850091 0.46082246 0.19288304 -0.03702063
-0.037283022 -0.0104093645 0.06496284 -0.38751242 0.031851478 0.05500702 0.039743714 -0.0744003
0.026818559 0.022415884 -0.059016354 0.020795748 -0.010489389 0.031328823 0.00572638 -0.05438689
-0.04016874 0.013608252 -0.07438222 0.025511343 -0.050462324 0.4410588 -0.008815865 -0.038249336
0.4732691 -0.03224822 0.38265553 0.0399425 -0.047472637 -0.04435588 0.45099148 0.07032712
0.016554724 -0.010278769 0.027721262 -0.014816497 -0.018468503 0.032775093 -0.010781251 0.26596767
-0.24477312 0.26627782 0.07890158 -0.063573465 -0.065093234 0.16208673 -0.076438375 0.11130471
0.01473666 0.010995528 -0.0030717477 0.19297196 -0.028995413 0.3721591 0.09214553 -0.005381435
0.09009171 0.042409763 0.019932471 0.08726228 0.3613543 0.05838462 0.0936351 -0.06283356
-0.0154373925 0.15120564 0.034348287 -0.41350672 0.3882138 0.06692221 0.049758993 0.29380193
0.0028459276 -0.0017834082 0.1582609 0.055562176 0.020285584 -0.09207287 -0.40159377 0.026800852
0.07457519 0.04514484 0.052527808 -0.3530512 0.056114785 0.018953286 -0.29218724 0.049910642
0.19120273 0.18478023 0.05831992 0.15371187 0.022863284 -0.03746053 0.31432936 -0.0432333
0.05444362 0.45014977 -0.023195332 0.01831711 -0.050618842 0.052559197 0.029114932 0.06374708
0.06685745 -0.027929433 -0.32741767 0.054272242 -0.028839592 -0.008358508 0.062367607 -0.056226823
0.049982347 -0.2830245 0.02725251 0.14869134 -0.026619207 0.06905609 0.18365844 -0.018527605
0.045690212 0.13616496 -0.08767905 -0.006374434 0.071333304 0.07417433 -0.020917825 0.33548626
-0.05928183 -0.0026820898 0.091851726 0.0022334307 -0.305741 -0.44803607 -0.06050849 -0.06564993
-0.13006681 0.35563004 -0.063397005 0.035161033 -0.063377045 0.2841549 -0.025200695 0.4406671
-0.022378769 -0.02844872 0.02542667 -0.04793378 0.0046901256 0.025922444 0.03491625 -0.13725968
0.041133977 -0.05209601 -0.056954447 -0.19003436 0.0050738994 -0.06565308 0.0028095618 -0.2184018
-0.041827418 -0.038732644 0.03409762 0.15576108 0.21313457 -0.012718459 -0.07690224 -0.021981627
-0.016563755 0.006187886 -0.06535844 0.01732026 0.0055621564 -0.5176611 -0.12322604 -0.013857186
-0.018863352 -0.036014017 0.13274322 -0.06122061 -0.03170204 0.07719732 -0.0043956344 0.46986488
0.2974195 -0.17481443 0.050653998 -0.050316755 0.07673117 -0.0015601963 -0.07991446 -0.43270847
0.09104167 -0.07449132 0.30211052 0.047287486 0.025010481 0.058308367 0.022526227 -0.15516792
-0.019795002 -0.18611357 0.03318992 0.040282078 0.012493469 -0.0068374774 -0.025728475 -0.3295484
-0.07727504 0.25753546 0.050209817 0.021843448 0.00044894964 0.037581027 0.014345825 0.031133296
00000000: 9146 ad3d c18f 8d3e 65e9 8bbd 92e5 5a3d
00000010: 1c96 e3be 6c87 aebd e0f0 1e3c b7e9 c33e
00000020: b123 17bd 6b87 fdbc 92cf ce3e 665e cbbe
00000030: 74cb b4bc e068 b0bb 6e53 0d3d ea99 f0bc
00000040: 689f f3be 8837 21bc 938a fabb 7840 a8bd
00000050: 126a ddbc 6127 27bd 60f3 c43b b4c8 b5be
00000060: 88e5 94bd 112f 8b3d 53c0 023d 51c3 733c
00000070: e669 5cbe 6f07 1ebd 0045 58bd f49f 923e
00000080: e496 3f3e 9124 853d fae6 a7bc cb00 4f3c
00000090: f73f b53d ecf0 eb3e 2283 453e f2a2 17bd
000000a0: 15b6 18bd 0a8c 2abc 3d0b 853d 0768 c6be
000000b0: b276 023d 0a4f 613d 4eca 223d 2f5f 98bd
000000c0: 98b2 db3c 84a1 b73c 22bb 71bd d85b aa3c
000000d0: b0db 2bbc a752 003d 5ba4 bb3b cac4 5ebd
000000e0: fa87 24bd 25f5 5e3c b555 98bd 2afd d03c
000000f0: 95b1 4ebd 76d2 e13e 6b70 10bc 56ab 1cbd
00000100: 5450 f23e b616 04bd 6deb c33e bf9a 233d
00000110: ab72 42bd 83ae 35bd 5be8 e63e aa07 903d
00000120: c69d 873c 4868 28bc b317 e33c e5c0 72bc
00000130: 424b 97bc 2d3f 063d d8a3 30bc ea2c 883e
00000140: cea5 7abe 9155 883e 2797 a13d ce32 82bd
00000150: 9a4f 85bd 10fa 253e b98b 9cbd b9f3 e33d
00000160: 0872 713c 9626 343c 604f 49bb 719a 453e
00000170: ca87 edbc a38b be3e ccb6 bc3d c056 b0bb
00000180: 0182 b83d dcb5 2d3d 6c49 a33c 91b6 b23d
00000190: 6e03 b93e b624 6f3d c2c3 bf3d e2ae 80bd
000001a0: 1eed 7cbc a7d5 1a3e cab0 0c3d 27b7 d3be
000001b0: f6c3 c63e 830e 893d 16d0 4b3d 356d 963e
000001c0: be82 3a3b 40c1 e9ba 250f 223e 2a95 633d
000001d0: f42d a63c b390 bcbd b39d cdbe 768d db3c
000001e0: e1ba 983d cce9 383d 6627 573d 20c3 b4be
000001f0: 9ed8 653d ec43 9b3c 9199 95be 1a6f 4c3d
00000200: a6ca 433e 0737 3d3e dee0 6e3d a566 1d3e
00000210: c84b bb3c 3670 19bd c7ef a03e 6715 31bd
00000220: 4600 5f3d 087a e63e 2304 bebc c40d 963c
00000230: b455 4fbd 5048 573d 7082 ee3c d48d 823d
00000240: 8fec 883d 44cc e4bc 4aa3 a7be 924c 5e3d
00000250: 0241 ecbc 20f2 08bc 2d75 7f3d 194e 66bd
00000260: 4aba 4c3d 96e8 90be a840 df3c 8b42 183e
00000270: 8610 dabc 486d 8d3d f510 3c3e 34c7 97bc
00000280: a925 3b3d d46e 0b3e 1391 b3bd a1e0 d0bb
00000290: 3217 923d b6e8 973d dc5b abbc dbc4 ab3e
000002a0: 81d1 72bd 00c6 2fbb c21c bc3d c05e 123b
000002b0: 168a 9cbe fc64 e5be c0d7 77bd 7873 86bd
000002c0: 3c30 05be 2415 b63e 4ad6 81bd 0405 103d
000002d0: d3cb 81bd c07c 913e b071 cebc 1e9f e13e
000002e0: ae53 b7bc 4a0d e9bc 984b d03c 3656 44bd
000002f0: a0af 993b 4e5b d43c 5704 0f3d cd8d 0cbe
00000300: 1a7c 283d a062 55bd 1149 69bd 5e98 42be
00000310: f442 a63b 1f75 86bd a020 383b b9a4 5fbe
00000320: 3a53 2bbd 1fa6 1ebd f2a9 0b3d d57f 1f3e
00000330: f33f 5a3e 1561 50bc ec7e 9dbd d012 b4bc
00000340: b6b0 87bc c0c3 ca3b a5da 85bd 38e3 8d3c
00000350: c042 b63b 7085 04bf ef5d fcbd 4009 63bc
00000360: 5187 9abc 6f83 13bd d7ed 073e 76c2 7abd
00000370: 00da 01bd a119 9e3d 4109 90bb 2192 f03e
00000380: 5e47 983e 8e02 33be 917a 4f3d f118 4ebd
00000390: 3b25 9d3d 807f ccba 31aa a3bd f78b ddbe
000003a0: 0e74 ba3d e88e 98bd 3bae 9a3e 86b0 413d
000003b0: c8e2 cc3c c1d4 6e3d ec88 b83c 57e4 1ebe
000003c0: 2129 a2bc 8e94 3ebe 27f2 073d d2fe 243d
000003d0: 68b1 4c3c eb0c e0bb 86c4 d2bc 91ba a8be
000003e0: 6042 9ebd b0db 833e cfa8 4d3d 08f1 b23c
000003f0: 0061 eb39 90ee 193d c00a 6b3c 410b ff3c

fc2.weight f4 [100, 300]
-0.056613192 -0.05215232 0.02178169 0.022065304 0.04218196 0.025100805 -0.03922067 0.009352565
-0.0117758885 -0.025210805 0.0005151741 -0.04957541 -0.047849976 0.0407288 -0.051471643 -0.053194676
-6.115064e-05 0.05189254 -0.019139819 -0.030392177 0.045311324 0.033609897 -0.018706113 -0.057126373
-0.023529653 -0.05249303 -0.0020654052 0.01861088 -0.0013311543 0.036950216 0.005225636 0.05675204
0.028325707 0.034282416 0.0550327 0.03281621 0.013228416 0.0339998 0.025577359 -0.026864484
-0.0005973093 -0.04231184 -0.04852306 0.029833041 0.02382204 0.03775093 0.04737281 0.037111834
-0.016690724 -0.050377235 0.013269201 0.03582809 0.018024907 -0.050683778 -0.015081279 -0.039439708
-0.051962133 0.02629383 0.028455228 -0.0041369908 -0.036667563 -0.05714725 0.009945013 0.03287732
0.04277657 0.033142395 -0.051305726 -0.00017009676 0.05353591 -0.051760565 0.033760637 0.0060200617
0.024888918 -0.056013927 -0.024766594 0.012645178 0.05480402 0.015463747 -0.015949529 0.036703408
0.025120117 0.03991402 -0.022991356 -0.032978162 -0.03305763 0.0025747493 0.05466669 0.050322592
0.01210808 0.051399603 0.006810054 -0.034605786 0.009965733 -0.037474625 -0.039195 0.020949446
-0.024344292 0.033857636 0.037644945 -0.05245158 -0.0050877593 -0.00024614856 0.011415251 -0.043720715
-0.012038462 0.024676256 0.04667884 -0.008015364 0.00678695 -0.04508274 -0.036813296 -0.049172293
-0.021280617 -0.05106687 -0.03621825 -0.044803977 0.038455203 -0.04084851 -0.017260943 0.056936763
0.024620093 0.039462432 -0.046228513 0.030764095 0.003459219 0.0043808185 0.036749862 -0.008573871
-0.03806433 -0.012681913 -0.0014983118 0.011632584 0.011236355 0.0034673885 -0.051341753 0.050007902
0.04821767 0.049909465 -0.02941606 0.031502172 -0.029969692 0.030793458 0.030613616 -0.03254526
-0.0101370625 -0.051349375 -0.05295276 -0.035450783 0.024905637 -0.014085904 -0.03386224 0.04195287
0.039129287 0.0067327023 0.0021254197 -0.016730256 -0.00018176064 -0.023420505 0.04587917 0.033004753
0.043000802 -0.04358606 0.048418388 -0.03999804 -0.048801653 0.030885883 -0.0017726235 -0.046806186
-0.033245474 0.049544975 -0.0069455877 -0.023834564 0.026546098 -0.050740164 0.048566177 0.032526202
-0.042153377 -0.037924044 -0.026287202 0.016575687 0.04321664 0.046892725 -0.025047868 0.024455093
0.01166518 -0.054240808 0.010486729 0.021752656 0.025676064 -0.011772715 -0.0072785467 0.015190311
-0.04842707 0.057559393 -0.038927056 -0.038681448 -0.022375837 -0.040453702 0.019515865 -0.023170397
-0.03212256 -0.008223336 -0.019106753 0.0427488 0.008120492 -0.0052256174 -0.039724544 -0.040976103
0.04164388 -0.05750645 0.0072691217 0.039497837 0.019512862 -0.0015945211 0.02760569 -0.017210357
-0.0055103563 -0.03466943 -0.011930406 0.041335337 0.051690362 -0.010156617 -0.027191248 0.0045444183
-0.032432467 0.038222477 0.00030518696 -0.027775533 -0.020314496 -0.004708085 -0.007055111 -0.048787273
-0.019453868 -0.0054702386 -0.019086044 0.034952015 0.05684475 0.05694422 -0.00013665855 0.041174583
0.009425342 0.02828987 -0.046312466 0.007340513 0.03938525 0.021347553 -0.04619835 0.022421643
-0.020696845 -0.054888554 0.001969833 -0.040774588 0.0069678873 -0.04942469 -0.054637946 -0.032523386
00000000: 3ce3 67bd ac9d 55bd 846f b23c 4cc2 b43c
00000010: fec6 2c3d 34a0 cd3c daa5 20bd 803b 193c
00000020: a8ef 40bc e486 cebc c00c 073a 960f 4bbd
00000030: 56fe 43bd 3ed3 263d eed3 52bd a9e2 59bd
00000040: 003e 80b8 468d 543d 1ccb 9cbc 04f9 f8bc
00000050: 5e98 393d 88aa 093d 903d 99bc 58fd 69bd
00000060: 42c1 c0bc ee02 57bd c05b 07bb d875 983c
00000070: 207a aeba 1c59 173d d03b ab3b d474 683d
00000080: 500b e83c b86b 0c3d f869 613d 4a6a 063d
00000090: 00bc 583c 6043 0b3d 9c87 d13c e812 dcbc
000000a0: c094 1cba 2e4f 2dbd 1ec0 46bd 6c64 f43c
000000b0: 7026 c33c b8a0 1a3d fe09 423d 9402 183d
000000c0: fcba 88bc 5c58 4ebd 1067 593c 7ac0 123d
000000d0: f8a8 933c cb99 4fbd 7817 77bc 888b 21bd
000000e0: 3fd6 54bd 2866 d73c f01a e93c 988f 87bb
000000f0: ba30 16bd 3c13 6abd 68f0 223c 5eaa 063d
00000100: 7c36 2f3d 52c0 073d f425 52bd 005c 32b9
00000110: 7848 5b3d e302 54bd 9848 0a3d f043 c53b
00000120: d8e3 cb3c dc6e 65bd 50e3 cabc b82d 4f3c
00000130: 2e7a 603d a85b 7d3c 96a8 82bc 5056 163d
00000140: b4c8 cd3c e27c 233d 5e58 bcbc 1c14 07bd
00000150: 7067 07bd 20bd 283b 2eea 5f3d 101f 4e3d
00000160: f860 463c 6488 523d e026 df3b ccbe 0dbd
00000170: 5047 233c fe7e 19bd f08a 20bd 2c9e ab3c
00000180: ae6d c7bc 4eae 0a3d 9631 1a3d 78d7 56bd
00000190: 38b7 a6bb 800d 81b9 0807 3b3c 7e14 33bd
000001a0: f83c 45bc dc25 ca3c 5032 3f3d e052 03bc
000001b0: 1065 de3b aea8 38bd 8ac9 16bd e368 49bd
000001c0: b054 aebc 7f2b 51bd 9659 14bd 6084 37bd
000001d0: 3483 1d3d c450 27bd d266 8dbc 8636 693d
000001e0: 14b0 c93c 5ca3 213d 1c5a 3dbd fc04 fc3c
000001f0: 10b4 623b f88c 8f3b 0687 163d 6c79 0cbc
00000200: 58e9 1bbd ccc7 4fbc 0063 c4ba 9896 3e3c
00000210: b018 383c 203d 633b bb4b 52bd 16d5 4c3d
00000220: e47f 453d de6d 4c3d f3f9 f0bc 6c08 013d
00000230: 0083 f5bc 9042 fc3c 68c9 fa3c 2e4e 05bd
00000240: ec15 26bc b953 52bd fee4 58bd d734 11bd
00000250: e806 cc3c 90c8 66bc 22b3 0abd c6d6 2b3d
00000260: 0846 203d 009e dc3b a04a 0b3b e40d 89bc
00000270: 0097 3eb9 5cdc bfbc cceb 3b3d fe2f 073d
00000280: 9c21 303d 4c87 32bd 5c52 463d fcd4 23bd
00000290: 3ee4 47bd 6404 fd3c 6057 e8ba d8b7 3fbd
000002a0: 682c 08bd acef 4a3d d097 e3bb b440 c3bc
000002b0: 3477 d93c ebd4 4fbd 54ed 463d 323a 053d
000002c0: 05a9 2cbd 3e56 1bbd 4258 d7bc bcc9 873c
000002d0: ee03 313d 9612 403d 3031 cdbc 0c56 c83c
000002e0: 501f 3f3c 9c2b 5ebd 88d0 2b3c a032 b23c
000002f0: 9c56 d23c 58e2 40bc e080 eebb c8e0 783c
00000300: 775b 46bd 66c3 6b3d fa71 1fbd 7070 1ebd
00000310: 884d b7bc c8b2 25bd bcdf 9f3c d8cf bdbc
00000320: f292 03bd 2cbb 06bc c485 9cbc 5e19 2f3d
00000330: d00b 053c a83b abbb 34b6 22bd 8fd6 27bd
00000340: c692 2a3d e28b 6bbd d031 ee3b 7cc8 213d
00000350: 70d9 9f3c 40ff d0ba 5425 e23c bcfc 8cbc
00000360: 3890 b4bb 8801 0ebd c077 43bc 3e4f 293d
00000370: 46b9 533d f067 26bc 2ec0 debc 58e9 943b
00000380: e8d7 04bd 2c8f 1c3d 8001 a039 8489 e3bc
00000390: 966a a6bc 4846 9abb 902e e7bb 2ad5 47bd
000003a0: b85d 9fbc b03f b3bb 565a 9cbc d829 0f3d
000003b0: 0ad6 683d 583e 693d 004c 0fb9 aea6 283d
000003c0: c06c 1a3c 28c0 e73c 24b2 3dbd b088 f03b
000003d0: 6e52 213d 10e1 ae3c 7b3a 3dbd 98ad b73c
000003e0: 6e8c a9bc d2d2 60bd 5018 013b 4103 27bd
000003f0: e052 e43b 8b71 4abd 0acc 5fbd 3e37 05bd

fc2.bias f4 [100]
0.02999632 0.008113968 0.021253623 0.014611699 0.29433817 0.40592548 -0.026109736 0.49269488
-0.11219981 -0.01594723 0.3440061 -0.35413438 0.33401385 0.022660233 0.38379753 -0.028141716
0.3542685 0.33714557 -0.22050285 -0.41858098 -0.052427687 0.037444234 -0.33129883 -0.31086877
-0.04011949 -0.3653526 0.07350619 0.38909793 -0.123001836 -0.38861862 0.046038892 0.4282393
0.42821556 0.049877908 -0.34570104 0.0012092628 0.05292041 -0.009854433 -0.050495055 -0.2520022
-0.053320475 -0.37551907 0.38274178 -0.33900857 -0.27759448 -0.38491848 0.024934813 -0.06904589
0.100352585 -0.010895822 -0.34023422 -0.34491596 -0.0069186725 0.011423141 -0.061550464 -0.4169588
-0.35611477 -0.38323212 -0.02289731 0.43085214 0.00808993 0.21141613 0.3579914 0.22912508
-0.34841123 0.3544909 0.03669078 0.086422734 -0.4271286 0.06698659 -0.03025599 0.034871712
-0.051912315 -0.12355223 -0.43886927 -0.04604018 0.004841447 0.01737988 -0.03812909 -0.35688946
-0.012318309 0.044496723 0.039312385 -0.05791485 -0.4437516 0.013369663 -0.32750887 0.23552763
0.3905429 0.05043243 0.36697924 -0.061619945 -0.16340098 0.4406883 0.002103094 0.45925012
-0.346401 -0.19918881 0.39332482 -0.35395998
00000000: d8ba f53c 73f0 043c 141c ae3c e865 6f3c
00000010: 7eb3 963e 77d5 cf3e 16e4 d5bc 8142 fc3e
00000020: 04c9 e5bd c4a3 82bc 9121 b03e 1a51 b5be
00000030: dd03 ab3e f4a1 b93c 1c81 c43e 7589 e6bc
00000040: ae62 b53e 589e ac3e 80cb 61be 3f50 d6be
00000050: 6abe 56bd 205f 193d 00a0 a9be 312a 9fbe
00000060: 5654 24bd 7f0f bbbe 6a8a 963d d837 c73e
00000070: 63e8 fbbd 05f9 c6be 4793 3c3d 2e42 db3e
00000080: 123f db3e c74c 4c3d baff b0be 2080 9e3a
00000090: 12c3 583d 7d74 21bc e7d3 4ebd 6f06 81be
000000a0: 9266 5abd 0944 c0be bbf6 c33e 8892 adbe
000000b0: dd20 8ebe 0914 c5be 1844 cc3c ee67 8dbd
000000c0: a885 cd3d 6484 32bc 2e33 aebe d398 b0be
000000d0: 08b6 e2bb 2028 3b3c 571c 7cbd a07b d5be
000000e0: ad54 b6be 0037 c4be 2493 bbbc a798 dc3e
000000f0: a08b 043c 787d 583e a64a b73e c49f 6a3e
00000100: f562 b2be d57f b53e 1249 163d 67fe b03d
00000110: 9ab0 dabe 4430 893d 69db f7bc a4d5 0e3d
00000120: 02a2 54bd f408 fdbd 79b3 e0be a194 3cbd
00000130: 00a5 9e3b 4060 8e3c 402d 1cbd 37ba b6be
00000140: bcd2 49bc 3242 363d 0606 213d 1f38 6dbd
00000150: 6933 e3be 6e0c 5b3c 3eaf a7be 282e 713e
00000160: 3df5 c73e 3c92 4e3d b4e4 bb3e 3265 7cbd
00000170: 9652 27be e6a1 e13e 10d4 093b d522 eb3e
00000180: 795b b1be 27f8 4bbe df61 c93e 3e3a b5be

fc3.weight f4 [1, 100]
-0.043836832 0.069408685 0.027828345 -0.042002287 0.07983284 0.04214996 0.043322645 0.14235836
-0.062110584 -0.057455994 0.037387196 -0.09266513 0.09187996 -0.07472799 0.022275427 0.07772833
0.034528334 0.07664448 -0.12643507 -0.07575203 -0.048950244 -0.032479204 -0.06108811 -0.023690686
-0.018505707 -0.013231572 0.0024359783 0.08188756 -0.09846516 -0.08348482 0.043367047 0.06631322
0.017143251 -0.03729449 -0.072346725 -0.0063462257 0.044734903 0.107232295 0.0007141031 -0.107534975
-0.0039572343 -0.016871152 0.07972939 -0.047029175 2.0057778e-06 -0.0490328 0.06957441 -0.07385083
-6.357909e-05 0.06476184 -0.012596615 -0.054885216 -0.07353586 -0.07387962 -0.07282539 -0.08249043
-0.056594852 -0.07072013 0.009068776 0.045603376 0.040068917 0.060580645 0.07052168 0.042797264
-0.017592622 0.039474074 -0.036867656 -0.00020942654 -0.045643784 0.041336246 -0.04095522 0.011010826
-0.048312567 -0.10743854 -0.060333174 -0.047063317 -0.06659223 -0.0015768409 -0.09067786 -0.061757427
-0.06193434 -0.02504228 0.093341775 -0.08848674 -0.048474245 -0.011744625 0.020119771 0.06835707
0.022876512 0.013399042 0.07164082 -0.021314124 -0.0854981 0.040601373 -0.0012605339 0.039678916
-0.048862632 -0.13036071 0.07401501 -0.089228965
00000000: 408e 33bd 2426 8e3d 45f8 e33c 970a 2cbd
00000010: 667f a33d 70a5 2c3d 1673 313d 64c6 113e
00000020: ab67 7ebd fa56 6bbd 5123 193d 37c7 bdbd
00000030: 8f2b bc3d fd0a 99bd f57a b63c 0830 9f3d
00000040: 956d 0d3d c8f7 9c3d 3278 01be e123 9bbd
00000050: 0d80 48bd ea08 05bd 8737 7abd f812 c2bc
00000060: 4899 97bc 3cc9 58bc efa4 1f3b aab4 a73d
00000070: 1aa8 c9bd 17fa aabd a5a1 313d 3acf 873d
00000080: 0170 8c3c 1bc2 18bd 852a 94bd 00f4 cfbb
00000090: f23b 373d 9b9c db3d a632 3b3a 4c3b dcbd
000000a0: b0ab 81bb 5f35 8abc 2a49 a33d aaa1 40bd
000000b0: 009b 0636 9ed6 48bd 077d 8e3d 1b3f 97bd
000000c0: c455 85b8 dba1 843d 0862 4ebc 52cf 60bd
000000d0: f899 96bd 334e 97bd 7a25 95bd bef0 a8bd
000000e0: 01d0 67bd b7d5 90bd 3495 143c 9bca 3a3d
000000f0: 4e1f 243d 6923 783d ac6d 903d 2f4c 2f3d
00000100: 671e 90bc 91af 213d 8a02 17bd 8299 5bb9
00000110: faf4 3abd 3250 293d a9c0 27bd c066 343c
00000120: 66e3 45bd bd08 dcbd eb1f 77bd 77c5 40bd
00000130: 8261 88bd 00ae ceba 50b5 b9bd 5bf5 7cbd
00000140: ddae 7dbd 7825 cdbc f929 bf3d 8938 b5bd
00000150: ee8c 46bd 876c 40bc 38d2 a43c cbfe 8b3d
00000160: 8667 bb3c a887 5b3c 6cb8 923d f59a aebc
00000170: a119 afbd a04d 263d 8038 a5ba 5c86 223d
00000180: 2f24 48bd 477d 05be 2e95 973d adbd b6bd
