final_test_/models/pcr_model_1_1.pt (torch, 317231 bytes, 7 tensors)

c1.weight f4 [10, 1, 9]
000000 a1 8c 2f 3e 09 d6 90 3e 5a 26 18 3e 51 21 1d be
       0.1714349 0.28288296 0.1485838 -0.1534474
000010 c4 b8 89 bd b7 93 d9 bd 05 0a 78 be 89 90 2c 3d
       -0.06724694 -0.106238775 -0.24222572 0.042130027
000020 0b 69 91 bd 1b 4f 15 be a0 7d f8 bd 60 47 7e bc
       -0.071001135 -0.14580958 -0.12133336 -0.015519947
000030 f3 c8 2a be f1 a1 98 3e c0 01 d1 3c 18 81 08 3d
       -0.16678219 0.2981105 0.02551353 0.03332624
000040 9b d0 0a be a0 39 bf 3d 90 68 1e be 86 3e 3a be
       -0.13556139 0.09337163 -0.15469575 -0.18187913
000050 57 19 aa be c0 f5 8d bc 65 b1 a8 3e 40 c0 98 3d
       -0.33222458 -0.017329097 0.3294784 0.07458544
000060 60 d5 d3 3d c0 36 6e be 80 a2 46 bb 2c ef 89 bd
       0.103434324 -0.23263073 -0.003030926 -0.067350715
000070 c6 4b 95 be ce 7e 6e 3e 7a 9e 95 be 08 8b 78 3d
       -0.29159373 0.2329056 -0.2922247 0.060679466
000080 f8 e7 5d be d4 20 f6 3d 4a 71 61 3e 40 9c 0b be
       -0.2167052 0.1201798 0.22015873 -0.13633823
000090 c0 20 eb 3c fa 35 04 3e ce f1 46 3e 40 00 f7 3b
       0.02870214 0.12911215 0.19428179 0.0075378716
0000a0 52 9d 9c be bc 62 9f bd 23 d1 8a be 1a 8a 7c 3e
       -0.30588776 -0.07782504 -0.27112684 0.24662057
0000b0 72 e2 83 be 5a 8b 18 3e 70 b6 c1 bd 76 7f 56 3e
       -0.25758702 0.14896908 -0.09458625 0.2094706
0000c0 78 d0 4b be a0 32 65 bd be a1 9d be 28 41 21 3d
       -0.19903743 -0.055956483 -0.30787462 0.03936878
0000d0 68 83 26 bd ba a0 1a 3e 7f cb 19 be 1e 3c bb 3d
       -0.040652663 0.15100375 -0.15019034 0.09142326
0000e0 33 7a 80 be 50 55 2c be 9b 58 a7 3d 0e b2 83 3e
       -0.2509323 -0.16829419 0.08171197 0.25721782
0000f0 fe 7b 36 3e a2 7d ef 3d 47 08 f8 bd ee df 65 be
       0.17820737 0.116938844 -0.12110954 -0.22448704
000100 5a 35 35 3e 58 cc 55 be d0 3b b3 bd ce 16 71 3e
       0.17696133 -0.20878732 -0.08751643 0.23543856
000110 ff 84 a5 be 9a 09 08 3e ca 90 0b 3e 36 fa ee bd
       -0.3232803 0.13284913 0.13629451 -0.11668818
000120 03 de 76 be 68 2a b8 3d 61 27 04 3e c1 9c 14 3e
       -0.24108128 0.08992463 0.12905647 0.14512922
000130 72 e1 23 3e c2 74 ef 3d c5 f1 13 3e 9c 3d 8e 3e
       0.1600397 0.11692192 0.14447697 0.2778138
000140 cc d1 24 be eb 3a 1f be 52 ce e1 3d ed cc 92 3e
       -0.16095656 -0.15549819 0.110256806 0.2867197
000150 41 7e e5 3d b2 be 58 3e c8 6d 36 bd 80 39 73 3d
       0.11205722 0.21166494 -0.04453829 0.05938101
000160 31 e7 eb bc d2 cc a8 be
       -0.028796764 -0.32968765

c1.bias f4 [10]
000000 7c 2d de 3e ac 78 fd 3d a8 9d 2a 3e 45 48 93 3e
       0.43394077 0.12376532 0.16661704 0.28766075
000010 58 5e a1 be 60 cf 02 bd 6f d8 b4 3d 3e 19 38 be
       -0.3151729 -0.03193605 0.08830344 -0.17978379
000020 81 7a 73 3e 40 8b 10 be
       0.237772 -0.1411562

fc1.weight f4 [300, 160]
000000 e6 8c a0 bd 69 79 1c bd eb aa 9f 3d 20 ee 3b 3d
       -0.07839374 -0.038201723 0.07796272 0.04588139
000010 9b 45 95 bd 96 fe 3f 3d 88 3c a1 3c 29 35 92 3d
       -0.07288667 0.04687365 0.019682184 0.07139046
000020 00 45 78 3c bb b1 3e bd 78 12 a6 3c 1a 7f 5b 3d
       0.01515317 -0.046556216 0.020272478 0.05358801
000030 b2 72 64 3d 28 a2 33 bd cc 4b 5b bd 40 05 65 bd
       0.055773444 -0.043855816 -0.053539082 -0.05591321
000040 b0 50 a5 3c 20 87 ca bc 3a 25 1c bd 0d 69 9f bd
       0.020180076 -0.024722636 -0.03812144 -0.07783709
000050 00 7a 6f ba 54 f5 94 bd c4 9e fa 3c 48 de 2d bd
       -0.0009135306 -0.07273355 0.030593283 -0.042448312
000060 80 2d c5 ba 8e 42 04 bd 7a 99 5a 3d e0 eb 9e 3c
       -0.0015043467 -0.032290034 0.053369023 0.019399583
000070 9e 6b 36 bd ac 35 8b bd fe f9 ea bc 7e 5f 13 bd
       -0.044536225 -0.067973465 -0.028683659 -0.03597974
000080 b0 f0 54 bc c0 56 b6 3a c8 ba cf 3c 90 09 79 bc
       -0.0129968375 0.0013911352 0.025357619 -0.015200034
000090 88 22 d4 3c da 8d 36 3d 52 7b a6 bc 80 38 de bb
       0.025895372 0.044568874 -0.020322476 -0.0067816377
0000a0 80 ad 5b 3b 82 02 4c 3d 8e 2b 66 3d b1 b2 a1 3d
       0.0033520162 0.04980708 0.05619388 0.07895411
0000b0 c4 10 d5 bc ac e5 d1 3c b0 60 b0 bb ae 0d 5e 3d
       -0.026008971 0.025622211 -0.00538262 0.054212265
0000c0 53 2b 06 bd 21 d1 06 bd e6 57 8e bd 2a 1b b2 bc
       -0.03275616 -0.032914285 -0.06950359 -0.021741468
0000d0 54 e9 21 bd d0 89 c0 3b 40 ce 7a 3b ce ad 66 3d
       -0.03952916 0.0058758035 0.0038269907 0.056318097
0000e0 a0 bb 43 bc c5 8e 8c 3d 09 22 9f bd 61 25 45 bd
       -0.011946589 0.068631686 -0.077701636 -0.04813135
0000f0 a5 2f 5d bd 9f ef 98 bd c0 15 9d ba 80 02 4c ba
       -0.054000515 -0.07467579 -0.0011984631 -0.0007782355
000100 0e 20 1c 3d 8e a9 62 3d b4 39 fb 3c c6 5c a1 bc
       0.038116507 0.05533748 0.030667163 -0.019697558
000110 f0 ba c7 3b 38 d4 78 3c 8a f6 d4 bc 90 68 5b bc
       0.0060952827 0.015187316 -0.025996465 -0.013391629
000120 bc 29 a9 bc a4 21 ae bc 8c ff 6d bd b2 2c 77 3d
       -0.020649783 -0.021256275 -0.058105037 0.06034536
000130 d8 6a 24 bd b8 e0 3c 3c 3a 67 2a bd 00 48 ba 39
       -0.040140957 0.0115281865 -0.04160235 0.0003553033
000140 12 97 4a 3d ae e9 9f bc 10 8e 48 3c b9 21 7f bd
       0.049460478 -0.019520607 0.012240902 -0.06228802
000150 b0 5d 7e bc 78 dc 9f bd 01 1f 35 bd 6a d0 1b 3d
       -0.0155252665 -0.07805723 -0.04421902 0.038040556
000160 60 66 3b bc 51 52 9e 3d c4 de 4b bd 98 26 0e 3c
       -0.011437982 0.07730544 -0.049772993 0.008676194
000170 b0 ac 8b bc 38 c0 dd 3c e0 b4 c3 bc c0 a0 c2 3a
       -0.017050117 0.027069196 -0.023889959 0.0014848933
000180 d5 66 27 bd 9a ee 57 3d a5 ff 9b 3d 52 28 c2 bc
       -0.040869553 0.052717783 0.0761712 -0.023700867
000190 74 18 95 3c 36 04 42 3d 3e a8 1f 3d 1c 57 17 bd
       0.018200137 0.047367297 0.038978808 -0.03694831
0001a0 10 5e f9 bc 84 e2 80 bc 1e c6 09 3d 1b 34 92 bd
       -0.03044036 -0.015733011 0.033636205 -0.071388446
0001b0 72 af 79 bd f5 15 89 3d ba 0d d0 bc 60 b0 3a 3d
       -0.060958333 0.06693641 -0.02539717 0.04557836
0001c0 d8 c8 2b bc 1e bd 33 bd 28 56 64 3c ac 3c 44 bd
       -0.010484897 -0.043881528 0.013936557 -0.047909424
0001d0 e0 29 60 bb 59 2f 8f bd ba ef 0a 3d d8 fd d1 3c
       -0.0034204647 -0.06991453 0.033920027 0.025633737
0001e0 7a 6e 0e 3d 1e 8b 14 3d 66 6a 7b 3d c8 87 5d 3c
       0.034773327 0.036265485 0.061380766 0.013521142
0001f0 09 fe 10 bd 20 4b 06 bd 2d 65 75 bd 25 7c 85 3d
       -0.035398517 -0.03278649 -0.059910942 0.06517819
000200 37 8c 0a bd f0 08 b8 bc 10 b3 17 bc 54 b6 18 3d
       -0.033825126 -0.0224652 -0.009259 0.037283257
000210 3e 8e 7e bd ce 6c 20 bd 70 75 3a 3d 5a 37 7f bd
       -0.06214737 -0.039166264 0.045522153 -0.062308647
000220 b0 4b e0 bb f9 b6 93 3d a6 aa 19 3d b0 68 ed bb
       -0.00684496 0.07212634 0.03751626 -0.0072451457
000230 ed b8 8f 3d 60 bb 6f 3c 5a ea 5f bd 14 9a 64 bd
       0.07017694 0.014632076 -0.054666854 -0.055811003
000240 51 34 96 3d 76 c6 1c bd 5b a0 34 bd 2a e5 f7 bc
       0.07334197 -0.038275205 -0.04409824 -0.030260641
000250 ff f8 83 3d 15 17 89 3d 77 dc 89 bd ac dc 4f bd
       0.064439766 0.06693856 -0.067315035 -0.05074756
000260 aa 97 c6 bc c5 e4 44 bd 71 00 9a bd d9 bd 19 bd
       -0.024242241 -0.048069734 -0.075196154 -0.03753457
000270 22 61 b9 bc f9 c4 83 3d 40 d4 4d bb e5 f8 8e 3d
       -0.022629324 0.06434054 -0.0031407028 0.069810666
000280 dd 95 ec bd 61 78 76 3c 6b a8 bc 3b 9c 0f 28 3c
       -0.11552022 0.015043349 0.0057573817 0.010257628
000290 e8 21 b3 3d 8f 54 77 bc be e4 f8 bc d9 cd b6 3d
       0.087467015 -0.015095844 -0.03038251 0.08925981
0002a0 fe f3 3a 3e 5e 6a 2c 3c b6 44 6c be c5 f7 32 3d
       0.18257138 0.010523407 -0.23073086 0.043693323
0002b0 ec d5 3a 3d a9 a3 5c bd 73 d1 48 3d f8 7f fa 3c
       0.045614168 -0.053867016 0.04902787 0.030578598
0002c0 44 de a4 3c 8d 98 90 bd 80 2d 73 3b 1a de 62 3d
       0.020125516 -0.07060347 0.0037105978 0.055387594
0002d0 10 b0 93 3b 66 11 45 3d 85 55 2c bd de e3 88 bd
       0.0045070723 0.048112296 -0.042073745 -0.06684087
0002e0 3c 27 15 3d 88 95 01 3d 81 69 18 bd f5 47 89 3d
       0.03641437 0.031636745 -0.03720999 0.06703178
0002f0 11 2d 82 3d a4 63 e6 3c c8 1e 2d 3c d0 bd 76 bc
       0.06356252 0.028123684 0.010566421 -0.015059903
000300 90 e9 4a bc aa d7 10 3d 40 e6 de ba 5a 71 47 bd
       -0.012384787 0.035361923 -0.0017005876 -0.048692085
000310 ea 04 8f bd 0c 38 2f bd 2a 9e fd bc 92 90 10 bd
       -0.06983359 -0.04277806 -0.030959208 -0.035294123
000320 38 fe 8c bc e9 6f 93 3d b6 f5 66 3d 9c c3 05 3d
       -0.017211065 0.071990795 0.056386672 0.03265725
000330 08 8e 96 bd 5c a9 85 bd 18 81 d7 bc f8 62 18 bc
       -0.07351309 -0.06526443 -0.026306674 -0.00930094
000340 f8 50 42 3c 72 4f 29 3d a5 6f 08 bd d1 09 98 bd
       0.011860125 0.04133553 -0.033309598 -0.07423747
000350 3b 41 83 3d 42 ff b2 bc db de 82 3d 6a c2 7f bd
       0.06408926 -0.021850232 0.063901626 -0.062441267
000360 73 4a 24 bd 34 22 3b bd 85 3f 84 3d b0 3e 9f bb
       -0.040110063 -0.045686916 0.06457428 -0.004859768
000370 24 fd cb 3c 66 b1 4a 3d e0 f5 d2 3b 50 ee 5d bd
       0.02490098 0.049485587 0.006438002 -0.05418235
000380 30 4d 66 bc 58 8c 00 3d c2 1f 00 bd 80 d9 22 ba
       -0.014056489 0.031383842 -0.031280287 -0.00062122196
000390 dc 8e a7 3c a0 6f e9 3b 1a cc 7c 3d 6b a5 92 3d
       0.020453863 0.0071239024 0.061718084 0.07160457
0003a0 45 44 8a bd a8 37 5e bd b1 b4 93 3d 53 c4 54 bd
       -0.06751303 -0.054252297 0.072121985 -0.051945042
0003b0 99 c1 99 3d 2a 35 2c bd 80 2b 3b 3a 58 b6 1f 3d
       0.07507629 -0.04204289 0.0007139966 0.038992256
0003c0 ca 75 81 bd 32 ed 65 3d 30 fc fb bb 77 d6 95 3d
       -0.063212946 0.05613441 -0.007689975 0.073162965
0003d0 62 5a a8 bc 5b f8 49 bd 2b f4 9c 3d 24 e0 ed 3c
       -0.02055091 -0.049309116 0.07663759 0.029037543
0003e0 06 07 1d bd 40 2c 0c 3c dd c5 9e 3d 80 64 0c ba
       -0.038336776 0.008555472 0.07752583 -0.0005355552
0003f0 a0 c3 09 3d b4 0f d3 bc 3c 23 6c bd be 4d 43 bd
       0.03363383 -0.025764324 -0.05765079 -0.047681563

fc1.bias f4 [300]
000000 30 cd 88 bb 31 cf 91 be 65 9e 84 3d 0a 50 43 be
       -0.004174851 -0.28478387 0.06475524 -0.19073501
000010 a7 84 09 be 38 d8 37 bd 96 eb 27 3d 17 cb 8a be
       -0.13429509 -0.044883937 0.040996157 -0.2710807
000020 ca d1 24 3d 24 88 a8 bc 6e 9e 6b 3d e4 eb 9d 3e
       0.040239133 -0.02057273 0.057524137 0.30844033
000030 4b c1 8a bd 28 19 a5 3e 3a 34 8b bd 76 97 6a 3d
       -0.06775149 0.32245755 -0.06797071 0.05727335
000040 16 ff d3 bc 2f 79 9a bd 13 10 88 3e 90 27 93 3b
       -0.02587847 -0.07542645 0.26574764 0.0044908
000050 5c 6b 14 be 31 65 57 3d 55 bc 81 3d 40 eb 35 3d
       -0.1449408 0.052586738 0.063347496 0.044413805
000060 78 2c d4 bc e8 69 36 3e 54 ac 49 be 11 41 4e bd
       -0.02590011 0.17813838 -0.19694644 -0.05035502
000070 0b 01 9b be 58 11 dc bc 4f 64 78 bd 15 97 89 3e
       -0.30274233 -0.026863739 -0.060642537 0.2687308
000080 fb 06 19 3e 80 80 ab bb d7 c1 b7 3e 37 f2 99 3e
       0.14944069 -0.0052338243 0.35890076 0.30067608
000090 8c 90 84 bc ae 72 5b 3d 09 b5 5b 3e ac 6f 25 3d
       -0.016182207 0.053576164 0.21455778 0.0403897
0000a0 a4 e0 85 3c 4a 6a 6b bd 7a b2 42 3e ac 23 8e be
       0.016342469 -0.057474412 0.19013396 -0.2776159
0000b0 e2 6a 90 bc 00 34 dc 39 00 2a fe b9 bc 62 8d bd
       -0.01762909 0.00042000413 -0.00048477948 -0.06903598
0000c0 b6 60 d0 3e 4e 97 3e 3d 06 a3 27 be eb d6 28 3e
       0.40698785 0.046531014 -0.16370782 0.16488235
0000d0 b1 99 8b 3e c0 86 80 3a 6d ef 99 3d 81 9e 32 bd
       0.27265695 0.0009805784 0.0751637 -0.043608192
0000e0 2e 97 55 3e 4e 7b ce 3d 55 f2 af 3d 18 00 84 3c
       0.20858452 0.10082112 0.08591143 0.016113326
0000f0 72 9f 64 3e a4 43 ce 3c e5 05 8e 3e e4 de 78 3e
       0.22326449 0.025178738 0.27738872 0.24303776
000100 1b cb bc be ed 57 8b be 0e 4b 03 3d bc f0 47 be
       -0.36873707 -0.2721552 0.032054 -0.19525427
000110 e8 b7 42 bc 1d 42 0a be 53 46 20 3e 0d 47 a7 be
       -0.011884667 -0.13501783 0.15651827 -0.32671395
000120 58 26 60 bc 05 7d a0 3d 6e b2 94 bd ec 94 52 3e
       -0.013681017 0.078363456 -0.07260595 0.20564622
000130 59 4d 3e 3d fc c8 e7 3c 20 19 e6 bc a1 74 aa bc
       0.046460483 0.028294079 -0.028088152 -0.020807566
000140 cd 29 86 3d 84 fd 21 3d ed e6 4c bd 37 1f 8d bd
       0.065509416 0.039548412 -0.050024915 -0.068907194
000150 dc 72 94 bd 2a 34 5e 3d 3b 60 87 3d c9 7b a0 3d
       -0.0724847 0.054248966 0.066101514 0.0783611
000160 dc 6b 6a be e8 55 ba 3c fa ce 7b 3d 50 47 81 bd
       -0.22892708 0.022746041 0.061476685 -0.0631243
000170 02 de a7 3e e5 8b 6a be 9a 9b b1 be 2f 8b 4d bd
       0.32786566 -0.22904928 -0.34689027 -0.050181564
000180 00 40 55 3e 40 3f 2d bd db 62 2e bc 28 f9 51 bc
       0.20825195 -0.042296648 -0.010643686 -0.012815751
000190 5d 51 3e 3d b2 91 88 3e d7 43 10 3e e7 13 8a 3c
       0.046464313 0.26673657 0.14088379 0.016855193
0001a0 64 82 e9 3c 73 3c 69 be 89 90 14 bd 3c ff 40 3e
       0.028504558 -0.22776966 -0.036270652 0.18847364
0001b0 79 d1 63 3d 33 22 80 3e f6 4a 07 3d 90 98 9c bd
       0.05561969 0.25026092 0.033030473 -0.076462865
0001c0 55 5b 1e 3e 0c 76 72 be 9d bf 73 3e ee 37 40 3e
       0.15464528 -0.23677844 0.23803563 0.18771335
0001d0 26 39 6d 3e f1 76 5b 3e ec 6f a3 3e 08 0c 90 be
       0.23166332 0.21432091 0.31921327 -0.2813418
0001e0 8a b6 b9 3d aa 5d 53 bd 32 9e 2a 3d af 20 92 3e
       0.0906802 -0.051602997 0.041654773 0.2854056
0001f0 65 1d ae 3e 10 48 1c bc 02 3b 89 3e 27 dc 34 be
       0.340068 -0.009538665 0.26802832 -0.17662106
000200 a0 66 b3 bc 3c e1 6e bd 3c 8f 04 3d 52 16 5f 3e
       -0.021899521 -0.05832027 0.03236316 0.21785858
000210 4d f8 4e 3e 72 33 23 3d 56 34 94 3e 12 1d 53 3d
       0.20211907 0.039843984 0.2894618 0.051541395
000220 d9 53 a0 bd 46 1d 9e bc 65 45 bf be f7 4d 2c 3d
       -0.07828493 -0.019301068 -0.3735763 0.04206654
000230 62 a2 f2 bc 96 b3 10 3d ba 90 3f be 83 4c 21 3e
       -0.029618446 0.035327516 -0.18707553 0.15751843
000240 f7 82 91 bd 8b eb 72 3d a0 c3 79 bb 76 6b 46 be
       -0.07105058 0.059306663 -0.0038110986 -0.1937693
000250 e9 b2 18 be d0 58 4c 3d 78 8d 93 bd e0 39 bb bb
       -0.14911999 0.049889386 -0.072047174 -0.0057136863
000260 0b 61 19 3e 23 98 ac 3e b2 83 89 bd 13 48 ac 3e
       0.14978425 0.3370982 -0.06714572 0.33648738
000270 f7 4d 62 3e 42 2e 89 3e 79 6c a4 bd dd 39 1b 3e
       0.22100054 0.26793104 -0.08028502 0.15158792
000280 49 c9 35 3e 18 7b 79 bc 6f b7 36 bd d6 88 94 3e
       0.17752565 -0.015227102 -0.04460853 0.29010648
000290 e0 56 9c 3b e0 c0 52 3d 30 71 f5 bb 88 a4 92 bd
       0.0047710985 0.05145347 -0.0074902996 -0.07160288
0002a0 59 16 f4 3c 2d d9 97 3e fc 20 7e 3e b6 a2 5e be
       0.029795812 0.2965788 0.2481727 -0.21741757
0002b0 1c a5 bf 3c 34 41 9a bd 31 e4 9c be 6c 92 19 bd
       0.02339416 -0.07531968 -0.30642846 -0.037493154
0002c0 0c 38 bd 3d 50 f8 05 bc 0b b5 be 3d 39 a4 60 3c
       0.09239206 -0.008176878 0.09311875 0.013711029
0002d0 af de 4f ba f6 b4 9a 3e 01 2a 9e be c4 6d 89 3c
       -0.0007929606 0.30216187 -0.3089142 0.016775973
0002e0 88 55 3e be 66 a4 61 be 0a c8 64 3d 90 b3 8f 3c
       -0.18587315 -0.2203537 0.055854835 0.017541677
0002f0 61 b7 18 3e 1b 53 94 3d df 1b 9e 3d a1 f0 c3 be
       0.14913704 0.072424136 0.0772016 -0.38269523
000300 84 3b 81 3c 27 1c df bd 96 60 4c bd b0 69 e5 3c
       0.01577545 -0.108940415 -0.0498968 0.028004497
000310 71 60 96 3d c0 ea 49 3d 6f 30 3a be 38 76 09 bc
       0.073426135 0.04929614 -0.18182538 -0.008390002
000320 78 b2 bc bd c8 e6 9d 3e 28 90 8d bd 79 29 46 3c
       -0.09213728 0.30840135 -0.06912261 0.012094849
000330 2b 07 8d 3e cd b5 33 be f2 8d b7 3b 53 48 9d 3d
       0.2754453 -0.1754982 0.005601638 0.076798104
000340 5c d8 78 3e 48 f0 2e bc 92 d9 5f bd 90 65 d7 3d
       0.24301285 -0.010677405 -0.05465085 0.105174184
000350 78 6c 2e bd e1 51 ba 3d 4a 49 be bc f0 5f 1b 3d
       -0.042583913 0.090976484 -0.023228306 0.03793329
000360 22 8a 61 bd 2d 92 a8 3d 38 c3 5b 3e f0 a2 8a 3c
       -0.055063374 0.08231006 0.21461189 0.016923398
000370 83 9e 80 3e 72 c0 10 be 16 fd 73 be 12 76 b1 be
       0.25120935 -0.14135912 -0.23827013 -0.34660393
000380 da a7 22 be f0 b7 4b bc ad 0c 02 be 98 b8 cb 3c
       -0.15884343 -0.012433991 -0.12700148 0.024868295
000390 5b f0 9b 3e 9b 4e 4c 3e 3b d4 82 3c c8 22 88 be
       0.30456814 0.1995186 0.01597034 -0.26589036
0003a0 35 c1 1a 3d 66 65 24 bd 73 18 7b be f8 a9 90 bc
       0.037781913 -0.040135764 -0.24521045 -0.017659172
0003b0 f2 eb 53 be 35 05 c8 3e 00 9b 93 3c 86 9d a3 bd
       -0.20695475 0.39066473 0.018018246 -0.079890296
0003c0 ac 48 99 3e 76 54 7c 3d d0 d7 93 bb ed 55 a4 3e
       0.29938257 0.061603986 -0.004511811 0.32096806
0003d0 cd 0e d7 bd c7 43 b3 3e fe c5 63 3c 0f 7c a9 3e
       -0.1050087 0.35012648 0.0139021855 0.33102462
0003e0 be eb d4 bc a5 09 82 bc 07 b2 8a be 3d af 87 3e
       -0.025991317 -0.01587374 -0.2708895 0.26500884
0003f0 d4 f1 59 bd 6e c1 2a be 00 2c a9 3d 6b 47 7c 3b
       -0.05320914 -0.1667535 0.082603455 0.0038494717

fc2.weight f4 [100, 300]
000000 3c cd 4f bd 28 9e 01 3d 72 fd 4b bd ea 09 19 3d
       -0.050732836 0.03164497 -0.04980225 0.03736297
000010 48 c0 4c 3d 30 0d d8 bb 21 e2 e2 bc c0 2a b7 ba
       0.04998806 -0.006593369 -0.027695717 -0.0013974532
000020 18 af b8 3c 94 5b c2 3c 04 d6 2a bd 3b a7 22 bd
       0.022544429 0.023725308 -0.041708007 -0.039710265
000030 98 d5 9f 3c 2a 06 10 bd 42 71 4e bd 40 ab 36 3c
       0.01951103 -0.03516213 -0.05040098 0.011149228
000040 7e 33 36 bd 4e 61 fc bc 41 5c 42 bd 38 59 68 3d
       -0.0444827 -0.030808117 -0.04745126 0.05672571
000050 30 53 ac 3b 92 1f e9 bc 18 01 a0 bc fc 70 28 3d
       0.00525894 -0.028457437 -0.019531772 0.041123375
000060 60 aa 17 3c e8 a4 10 3c 5f 3b 19 bd 76 72 18 3d
       0.009256929 0.008828379 -0.037410136 0.037218533
000070 78 ad 61 3d 5a 97 29 3d 62 74 69 3d ec e6 69 bc
       0.055097073 0.041404106 0.056995757 -0.0142762475
000080 1e 62 e2 bc 80 da 98 3a b0 25 e9 3c 9e b5 25 bd
       -0.027634677 0.0011661798 0.028460354 -0.040456407
000090 88 0b 24 bc c4 3a 16 bd 80 ac 25 bc 10 4e 70 3b
       -0.010012515 -0.036677137 -0.010111928 0.0036667623
0000a0 4c 3f fe 3c 6a 56 a5 bc 50 43 cb 3c e4 19 ee 3c
       0.031036042 -0.020182807 0.02481237 0.02906508
0000b0 30 6a 46 3d db 84 13 bd 42 ad 4c 3d b0 6d e8 bc
       0.048441112 -0.036015373 0.04996992 -0.028372616
0000c0 90 d9 0e 3d fb fe 36 bd a4 e5 34 bc ca 49 11 bd
       0.034875453 -0.044676762 -0.011041079 -0.03547076
0000d0 80 c5 0c bb 08 ef 1d bc 00 54 b6 bb 08 ae 14 3c
       -0.0021480024 -0.009639509 -0.005564213 0.009074695
0000e0 84 3a 4e bd 18 35 16 bd d8 58 0e 3c 08 a1 77 3c
       -0.050348774 -0.036671728 0.008688174 0.015114076
0000f0 af 4e 66 bd 4a d2 02 bd 8c 55 60 3d 20 05 41 bc
       -0.056227382 -0.03193883 0.054769084 -0.011781007
000100 c1 dd 0b bd f0 87 06 3d dc 79 4e bd 1c 67 17 3d
       -0.034147028 0.032844484 -0.050409183 0.036963567
000110 2e a4 12 3d 6a b7 bd bc c2 01 32 3d 3e c5 bb bc
       0.035801105 -0.023158748 0.043458708 -0.0229212
000120 ac 27 9e 3c d4 52 9b 3c cd 8d 4b bd 00 a5 38 3d
       0.019306026 0.018960394 -0.04969578 0.04507923
000130 5a 24 5f 3d 14 e7 31 3d ec 94 01 bd 2e 86 43 bd
       0.054478027 0.043433264 -0.031636164 -0.047735386
000140 7e 5a 36 bd 30 ce e5 bc 10 73 d3 bc 00 03 12 ba
       -0.044519894 -0.02805242 -0.025811702 -0.0005569905
000150 14 15 3c bc dc 2d 59 3d 38 d8 4c bd 9c a5 22 3d
       -0.011479635 0.05302225 -0.05001089 0.03970872
000160 ff 67 59 bd 9c 97 d2 bc 4c 92 ab bc f0 35 88 3b
       -0.053077694 -0.025707059 -0.020943783 0.0041568205
000170 a8 f1 39 3d 50 e7 4d bd 30 8d 5a 3d a1 2c f9 bc
       0.045396477 -0.050269425 0.053357303 -0.030416789
000180 52 02 4b bd 84 c7 a5 3c 54 d9 96 bc 78 a5 32 bc
       -0.04956276 0.020236738 -0.018414177 -0.010903709
000190 e8 fc 28 3c 12 2a 23 3d d8 5a 23 bd 72 f7 1b 3d
       0.010314204 0.039835043 -0.039881557 0.03807778
0001a0 e0 a3 9f 3a e0 d4 60 3b 4e e7 45 3d 20 46 1b bd
       0.0012179576 0.003430657 0.048316292 -0.037908673
0001b0 40 24 89 bb 28 b5 bb bb 2e 51 47 3d 19 53 67 bd
       -0.0041852295 -0.0057283826 0.048661403 -0.056475732
0001c0 5e 27 e8 bc 04 3f 00 3d 28 f5 fa 3c 4d d7 3e bd
       -0.028339084 0.031310096 0.030634478 -0.046592046
0001d0 1e e4 09 bd 88 59 74 bc 74 05 06 bd be 52 f6 bc
       -0.033664815 -0.014913924 -0.032720044 -0.030068751
0001e0 7e 50 9c bc a2 94 ce bc a0 3a da 3c 70 3d 4c 3d
       -0.01908135 -0.025217358 0.026639283 0.04986328
0001f0 20 ff 62 3b d8 a4 55 3d 82 c0 3a 3d 66 0d 16 bd
       0.003463693 0.05215916 0.045593746 -0.03663387
000200 b0 50 ab 3c 18 19 80 bb 50 bf 2c bd 86 28 4f 3d
       0.020912498 -0.0039092414 -0.042174637 0.050575756
000210 78 84 50 bd bc 1d bb 3c c4 69 2b 3d 3a 94 11 bd
       -0.050907582 0.022841327 0.041848913 -0.03554175
000220 24 c5 bc bc 08 cc f3 3c 4c fe a6 3c 36 90 07 bd
       -0.023043223 0.029760376 0.02038493 -0.033096515
000230 78 c7 b7 3c 90 15 2e 3c 18 35 e3 3c 6f a2 dd bc
       0.022433981 0.010625258 0.027735278 -0.027054993
000240 42 44 09 bd 2a 41 09 3d 10 ca fa 3c d0 1f ad 3b
       -0.03351236 0.03350941 0.030613929 0.0052833334
000250 7c fa 0b bc 28 bf 09 3d d4 ae 94 bc 20 04 f0 ba
       -0.008543607 0.033629566 -0.01814977 -0.0018311776
000260 86 70 a1 bc f4 f8 cc bc e3 18 1c bd d8 61 02 bd
       -0.019706976 -0.025021054 -0.03810967 -0.031831592
000270 81 f4 1c bd b0 ed c7 bb 10 bd 96 3b 1f 15 5a bd
       -0.038319115 -0.0061013326 0.0046001747 -0.0532428
000280 78 bc 83 3c 5c 74 ad 3c 40 9c 85 bc 68 8a 60 bd
       0.01608108 0.021173649 -0.016309857 -0.054819494
000290 7a f2 95 bc 1c 87 a5 bc 92 5b f3 bc 84 0b 09 3d
       -0.018304098 -0.020206027 -0.02970675 0.033458248
0002a0 60 02 bb 3b e0 74 c4 3c 12 8c 81 bc 8c 98 34 3d
       0.00570707 0.023981512 -0.015813861 0.044090793
0002b0 00 e2 ea 3c 8e 3f 49 bd 14 b3 27 3d 30 be 0f 3d
       0.028672218 -0.049132876 0.040942267 0.035093486
0002c0 ac 52 3f bc f2 19 1e 3d dc 03 65 3d c8 d9 b3 bb
       -0.011677425 0.038598962 0.055911884 -0.005488608
0002d0 2c 34 f2 bc e8 c8 b3 bc d0 7d 7a 3c 47 75 17 bd
       -0.029565893 -0.021946386 0.015288785 -0.03697708
0002e0 08 94 9d 3c 08 5d 4a 3d 64 23 ec 3c 44 98 36 bc
       0.019235626 0.049405128 0.02882547 -0.011144701
0002f0 e8 70 6a 3d e4 e0 ae 3c 10 6e 86 3c 4a af 18 bd
       0.057236582 0.02134747 0.016409904 -0.037276544
000300 80 a3 28 bb 96 f0 86 bc cc 57 93 bc 52 d6 99 bc
       -0.002573222 -0.016472142 -0.0179862 -0.018778954
000310 18 97 d4 3c db fe 40 bd 2a 7c 0c 3d e7 34 4e bd
       0.025950953 -0.04711805 0.0342981 -0.05034342
000320 80 5b 94 3b 48 8a 17 3c 87 18 4b bd dc c7 ac bc
       0.004527509 0.009249277 -0.049583938 -0.021091394
000330 00 c1 6d 3c 30 0f 70 bc 5e 5b 04 bd c0 fb 53 3c
       0.014511347 -0.0146520585 -0.032313697 0.01293844
000340 e0 81 06 3c 98 7d a9 3c 76 8b c2 bc a0 d8 4b bb
       0.008209676 0.02068977 -0.02374814 -0.003110446
000350 0e 02 48 bd a8 84 67 bd b8 b1 09 3c 88 36 46 3d
       -0.048830085 -0.056522995 0.008404188 0.04839185
000360 b4 c2 f3 3c ec 87 ba bc 44 86 06 3d c2 e0 0e 3d
       0.029755928 -0.02276989 0.03284289 0.034882315
000370 91 ad 38 bd f6 11 3e bd 18 d6 13 bd b2 2e 56 3d
       -0.0450874 -0.046403848 -0.036092848 0.052290626
000380 50 4b 32 bd d0 39 fa 3b f0 08 dc 3c 08 4a d3 bb
       -0.043528855 0.0076362863 0.02685973 -0.006448034
000390 cd 8c e0 bc 30 f3 d2 3c 50 c9 e6 3c f4 79 7f bc
       -0.027410889 0.025750726 0.028172165 -0.015593041
0003a0 ee ad df bc ce 3f 9c bc 70 aa 36 3d 0c 65 b1 3c
       -0.027304616 -0.019073393 0.044596136 0.021654628
0003b0 fb 88 44 bd 8a 48 65 3d 30 e6 30 3c 48 74 df 3c
       -0.047982197 0.05597738 0.0107970685 0.027277127
0003c0 4e 8c a2 bc 3a a5 59 3d 74 5d 58 bc b8 b8 74 3c
       -0.019842293 0.053136088 -0.013205875 0.0149366185
0003d0 2c 98 c3 bc b4 d3 57 bc 3c e9 08 bc 08 da 18 bd
       -0.023876272 -0.013173033 -0.008356389 -0.037317306
0003e0 7a 29 b5 bc 98 3e 46 3d 70 93 8c 3c 0c 65 83 bc
       -0.022114504 0.048399538 0.017160147 -0.016039394
0003f0 84 fd da 3c 38 62 4d bc 9e 9a 1e 3d 04 dd 96 3c
       0.026732214 -0.012535624 0.038721673 0.018415935

fc2.bias f4 [100]
000000 ba de 6b 3d 28 39 e2 3c 75 7e 69 bd f1 4f 8e 3e
       0.057585455 0.027615145 -0.057005364 0.27795365
000010 85 2d 38 3e af 93 60 bd 1a 96 87 3c d8 be 2c 3d
       0.17986114 -0.054828342 0.016551066 0.04217419
000020 d8 cf 84 3c 26 8b ce bc ad c2 7f be 4d f6 da 3c
       0.016212389 -0.025212836 -0.24976607 0.026728773
000030 43 94 cc bd 31 01 c9 3d e5 58 5e bd 37 be 7e be
       -0.09989216 0.0981468 -0.054283995 -0.24877249
000040 e8 13 cc 3c 33 6e 3d bb 90 32 ea 3c 89 6a 44 3e
       0.024911836 -0.0028904795 0.028588563 0.19181265
000050 2c d2 37 bc 71 71 84 3e 6d ee 5a 3d 3b ee 91 3e
       -0.0112195425 0.258678 0.053450037 0.28502068
000060 7b 28 a4 be f4 a0 ad 3e a9 ca 82 be 60 34 ac be
       -0.32062134 0.3391186 -0.25545242 -0.3363371
000070 4f a9 dd bd 9e 64 a0 3e d9 20 96 be d3 99 72 3e
       -0.10823309 0.31326765 -0.29321936 0.23691492
000080 b7 fe bb bd 92 86 9a be 69 90 c6 bc 55 0a a8 be
       -0.091794424 -0.30180794 -0.024238782 -0.32820383
000090 ed c4 92 3d 26 b1 12 3d c6 77 89 be 42 0b 93 3e
       0.07166467 0.035813473 -0.26849192 0.28719527
0000a0 41 d5 06 3c b4 af 0f bd 42 a3 1e 3d 7e cb 76 3e
       0.008229555 -0.035079673 0.038729914 0.24101064
0000b0 e1 3c d5 bc d1 d2 03 3d 72 e9 23 bd 40 9c 19 3c
       -0.026030006 0.032183472 -0.040017553 0.009375632
0000c0 2f e0 80 3e 18 48 a5 3e 58 6a 11 3e 76 20 a5 3e
       0.25171039 0.32281566 0.14200723 0.32251328
0000d0 ad ac 9b be 32 1f 96 be ae f6 36 3d 00 85 45 bc
       -0.3040518 -0.29320675 0.044668846 -0.012055635
0000e0 ba 7b 9c bd c3 60 2d 3d e8 0c 62 3c 87 bd b7 bc
       -0.076407865 0.042328607 0.013797022 -0.02242924
0000f0 ee 71 df bc 1b 4c 04 bd 70 40 1b 3d b2 6a b3 3e
       -0.027276006 -0.032299142 0.03790325 0.3504234
000100 8a b0 52 bd 5b fb 8e 3e 29 c8 65 3c f8 24 71 be
       -0.051437892 0.27926144 0.014024773 -0.23549259
000110 1a dd 02 bd c8 74 1c 3e a4 ac 7c 3e b3 47 40 3d
       -0.03194914 0.15278924 0.24675232 0.046943378
000120 fc 96 da bc 44 f6 53 3d 17 9d 9c be 76 79 65 bd
       -0.026683323 0.05174853 -0.305886 -0.056024037
000130 fd 9b f8 bc b8 8e 82 be cc 2c 97 3e 23 2b 0b 3c
       -0.030347819 -0.2549951 0.29526365 0.008494171
000140 81 28 88 be 17 6a b3 3e f4 94 9d 3e b6 9f a6 3e
       -0.26593402 0.35041878 0.30777705 0.32543725
000150 94 6d c8 3c 14 3f 90 bc 98 7e 50 bd ff 86 a0 bb
       0.024466313 -0.017608203 -0.05090198 -0.0048989053
000160 5f 2b 30 3e cf f9 f3 3b 70 fc 99 bc 06 a2 04 bd
       0.17204045 0.007445551 -0.01879713 -0.03238108
000170 10 f1 31 3d a5 d0 a3 be 6e 38 58 bd 1a 81 84 be
       0.043442786 -0.3199512 -0.05278819 -0.25879747
000180 99 c9 47 3d 60 29 c5 bd b1 26 ea bd 66 d7 08 3d
       0.048776243 -0.09627032 -0.11433161 0.033408545

fc3.weight f4 [1, 100]
000000 a0 29 67 bb bd 0c 54 bd 5d 43 2a bd 22 bb 87 3d
       -0.0035272613 -0.05176996 -0.04156815 0.066274896
000010 c4 ac 6b 39 28 78 6a 3d 19 8e c9 3d c6 1f 1c bd
       0.00022475707 0.057243496 0.09841556 -0.03811624
000020 b9 a7 a8 3d fb 83 84 3b 4b cf 09 bd a1 e8 c9 bc
       0.082351156 0.0040440536 -0.033644956 -0.024647059
000030 c6 29 78 bd 9b 21 b2 3c a6 57 5f bd 6c 56 8b bd
       -0.060586713 0.02174454 -0.054526947 -0.06803593
000040 7d 04 8b bd 41 86 1f 3d 40 c0 01 3c 0a 9f c8 3c
       -0.067879654 0.038946394 0.007919371 0.024489898
000050 d3 5f 7a bd 87 60 78 3d aa d0 44 3d 6d 4a 2d 3d
       -0.06112654 0.06063893 0.04805056 0.042307306
000060 2d c0 3d bd 8b 14 85 3c cb f8 c3 bc 9b dd b6 bd
       -0.04632585 0.016245147 -0.023922345 -0.08928987
000070 a7 ab 9d 38 71 dc 85 3c 84 86 1e bd 79 91 80 3c
       7.518316e-05 0.016340466 -0.038702503 0.015694367
000080 91 ce df bd 8d cb 50 bc 11 40 e7 3c 9f b0 8e bc
       -0.10928071 -0.012743843 0.028228791 -0.017418204
000090 25 e3 29 3e fb d8 54 3c 62 23 af bd 76 d3 3c 3d
       0.16590555 0.012991185 -0.085516706 0.046100102
0000a0 14 df ce 3c 6a 0b d9 3d 59 90 a4 3d 88 65 b8 3c
       0.025252856 0.1059788 0.08035345 0.022509351
0000b0 b5 5a 94 bd 53 a9 39 3d ed 0c a6 38 78 44 bf bd
       -0.072438635 0.045327496 7.9179044e-05 -0.09339231
0000c0 fb fb 39 3d 03 2a 3b 3d 6a 71 81 3e 41 f1 d6 3c
       0.045406323 0.045694362 0.2528184 0.026238086
0000d0 9e 0d b0 bc 11 5d 1b bd f4 4e 99 3c 51 0d 85 3d
       -0.021490868 -0.037930552 0.018714406 0.064966805
0000e0 25 b6 e5 bd b6 b4 1a 3e e2 ef 0c 3d 7b af 72 3d
       -0.11216382 0.15107998 0.034408458 0.059249382
0000f0 92 9a 2c 3d 24 71 ad bd 74 e6 ac b9 bb 08 6f 3d
       0.042139597 -0.084688455 -0.00032978097 0.058357935
000100 37 ef c3 bd e6 b7 86 3d d0 36 3f bb db ea 25 bd
       -0.09567111 0.065780446 -0.0029176958 -0.04050718
000110 70 cb a4 bd a3 e5 1d 3d 48 a2 89 3d 98 12 8a 3d
       -0.08046615 0.038549077 0.06720406 0.06741828
000120 5c e5 68 bd d0 c1 88 bc cd 5d 52 bc c9 92 c2 3d
       -0.05685936 -0.01669398 -0.012839747 0.09500653
000130 3b d4 9a 3d bc 59 0f bd df 80 00 3d 28 79 b3 3d
       0.07560011 -0.034997687 0.0313729 0.08763343
000140 02 03 c2 bc c2 5f 0a 3d 96 1b 9e 3c 82 c0 c4 3d
       -0.023683075 0.033782728 0.019300263 0.096070305
000150 68 ff 57 bc bc d6 95 3d 7e f1 90 3d 55 90 74 3d
       -0.013183452 0.07316348 0.07077311 0.05970796
000160 3b 61 0f 3d 96 1b 1e 3d 38 a6 b7 3c a8 fc f4 3c
       0.035004836 0.038600527 0.022418126 0.029905632
000170 ba 3c 39 bd b2 51 49 bd a0 30 2e bb 9c 17 52 bd
       -0.04522393 -0.049150176 -0.0026579276 -0.051292047
000180 1d 06 bf 3b 32 c2 e0 bd b2 0f 6e 3d 1a b5 04 3d
       0.005829586 -0.1097454 0.058120437 0.032399274
