final_test_/models/pcr_model_1_3.pt (torch, 317231 bytes, 7 tensors)

c1.weight f4 [10, 1, 9]
00000000: 80a8 70bb 8e44 91be a21e a0be b006 a0bc
00000010: f6eb eabd 5b3f 8cbe 6c34 c93d 80b8 b23d
00000020: 90ea 6abe f233 84be 9915 26be c2e4 86be
00000030: 092d 703e d6f5 4e3e cc51 7cbe 1c38 8e3e
00000040: 6740 783d 6704 873e 8635 b63b 8c00 2ebe
00000050: c337 15be d12c 043e 7f29 813e 0046 843e
00000060: c725 59bd a63e 483c bede 5ebe 1049 bb3d
00000070: 2e11 393e d8ad 76be f712 88be c7b2 a33e
00000080: 5285 133e ee6e 1fbe cb7a 98be c85c 40be
00000090: b070 15be f06c ecbc 3a23 a7be 69b9 9c3e
000000a0: a94b 803e 8c9d 91be de99 67be bcdb ccbd
000000b0: f5da a93e cbb7 50be d4a2 a8bd a0a5 213d
000000c0: 5607 e2bd 8082 50bb b0e4 863d e006 61bd
000000d0: 1391 87be cf59 8ebe 53ff 9a3e 0ff9 5f3e
000000e0: c0c7 583d bc8e 91be 2980 53be 8bb5 b13d
000000f0: e275 083e 1fc3 63be dd7b 70bd daac 363e
00000100: 7f8d 703d 3213 f8bd 0101 473e 66ce 31be
00000110: 0cdf ebbd f801 2dbe ee15 603e 0887 433e
00000120: 2b1a 5d3e 4496 dfbb 6964 3dbe 84e3 89be
00000130: 51e6 373e 1a55 1c3e 024f 9a3d 4379 cc3c
00000140: 0be0 6e3e 63ad 433e 1b81 f7bd b86b 8e3e
00000150: 1d21 743e 911d 753e 30df 95be ff83 a9bd
00000160: 240d 82be cf03 993c
-0.0036721528 -0.28372616 -0.3127337 -0.019534439 -0.11470787 -0.27392086 0.09824452 0.08726597
-0.22941041 -0.2582088 -0.16219176 -0.26346403 0.2345468 0.20210966 -0.24640578 0.27777183
0.060608294 0.26370546 0.0055605797 -0.16992396 -0.14572053 0.12907721 0.25226972 0.25834656
-0.053014543 0.012221968 -0.21764657 0.09144795 0.1807296 -0.24089754 -0.2657697 0.31972334
0.14406326 -0.1556966 -0.29781184 -0.18785393 -0.14593768 -0.02886054 -0.32644063 0.30610207
0.25057724 -0.2844051 -0.2261729 -0.100028485 0.33174863 -0.20382611 -0.08234182 0.039464593
-0.110365555 -0.0031816065 0.065865874 -0.054938197 -0.2647787 -0.27802894 0.30272922 0.21872352
0.05292487 -0.2842921 -0.20654358 0.08677205 0.13326219 -0.22242402 -0.058711875 0.17839375
0.05872869 -0.12113036 0.19433977 -0.17363891 -0.11517152 -0.16895282 0.21883366 0.19094479
0.21592014 -0.006823333 -0.18495335 -0.26931393 0.17958952 0.15266839 0.07534601 0.024960166
0.23327653 0.1910911 -0.12085172 0.27816558 0.23840757 0.2393706 -0.2927184 -0.082771294
-0.2540065 0.018678574

c1.bias f4 [10]
00000000: 0681 cfbd 2a2b cd3e 78c9 e73e 4009 ec3d
00000010: 56a3 1f3e 7790 a03e 8415 c43e 9c2b 00be
00000020: 9783 a73d 2d4f 0c3d
-0.10132031 0.40071994 0.45270896 0.11525202 0.15589651 0.31360218 0.38297665 -0.12516636
0.08179396 0.034255195

fc1.weight f4 [300, 160]
00000000: 7007 af3b 584f da3c ae2a 81bd 0077 fdba
00000010: ce11 293d 9fbc 8cbd c0eb 5abd 8c37 c3bc
00000020: 4463 fa3c cc96 0b3d 4e96 79bd 8c11 ed3c
00000030: 4e0a 8ebd d463 313d d6ce 233d 362f 733d
00000040: 1eb4 8cbc 14c0 adbc 1c0b 8dbd f3dc 85bd
00000050: d7f3 803c fd67 9b3c d47d 963d 74a4 0abd
00000060: fdbf a9bd a81d 4a3d 70b2 7cbc 13ba ffbc
00000070: 2440 2f3d e1bd 413d 50cc 5c3c c50a 5b3c
00000080: 7e4f 3f3c 5c74 903d bfb5 1d3c 3551 e03a
00000090: 82f8 76bd 56a6 8fbd 034c 1abd 38d2 32bd
000000a0: 0feb d23c 2d03 3cbc ea61 283d a2f8 073d
000000b0: f880 eabc c2b4 8f3d cf41 a03b d914 603d
000000c0: e929 923d b6c6 103d a11c 68bd f0d4 833c
000000d0: 201d 283b 05b5 803d 7fd7 9abd f890 153d
000000e0: c03a d83b 4623 2dbd 8525 93bd 6c64 d5bc
000000f0: f0b7 0bbc 7013 51bc 6017 183b 8ea3 783d
00000100: 585a 073d dec6 31bd d020 00bc 56a8 403d
00000110: b856 373d 2e4c 043d 81fe 8a3d 72f8 34bd
00000120: ece4 fabc 3b19 4bbd b863 2cbc a0ec c63b
00000130: 47a1 883d e56b 843d 58c8 b23c f465 54bd
00000140: f8b5 69bc 20f4 12bd 4fb1 38bd df35 16bd
00000150: 3d1f 0ebd 88ce 82bc 5207 2f3d 5e04 223d
00000160: c051 d5ba 7eee 4e3d 3e73 80bd e8f5 913c
00000170: c017 ed3c 1851 16bd 6a3d 4a3d b098 343c
00000180: dc82 6a3d c084 1f3d 7642 f13c e8be 33bd
00000190: 96d5 25bb e4cd d4bd 1d04 123d 9bad 043d
000001a0: 2ae2 693d d79f 843d 1607 bfbc a248 233d
000001b0: d93b 703c f1bf 05be d54d 993c 18be 063e
000001c0: 8539 9dba c81a 13bd 8cf5 793d 3094 8e3c
000001d0: 05da 88bd 0674 ddbc 2d20 5bbd d6db fe3b
000001e0: 429c 4e3d eb5c 4b3d 3f46 11bc d105 34bd
000001f0: 83c4 4e3d 7c40 4d3d 4931 903d 3601 613c
00000200: 22d7 a83c fdb4 1d3b 3bed 5d3d 6cc5 b23c
00000210: be99 0e3c c840 043d f0c7 7a3d 160f 923d
00000220: 7ae4 31bd 77fe 4abd bc67 913d 2daf 38bd
00000230: d1c3 8cbc 73d8 9bbd 9c7a 3fbc 430d 753d
00000240: 117f c13c b6e7 c4bc 8784 683d 0daa a13c
00000250: 9e74 a9bd 5005 75bd e4e5 0bbc a71d 953c
00000260: 58b9 47bb 7803 693d 0c5a 8abd e5d6 603d
00000270: d171 15bd c6e0 8abd f3af 9a3c ecc2 07bc
00000280: 54ae 92bc f4d5 83bd 086e d63c 5ff8 30bd
00000290: 49aa 8a3d 0917 1cbd a004 3bbb 0022 743c
000002a0: 334c 8fbd 40e1 05bc 1c09 3cbd 6661 223d
000002b0: 07d0 863d 90e1 07bc b709 4bbd 0ca9 9ebd
000002c0: cc92 98bd b02c 593c 38d1 7dbd da27 463d
000002d0: 5668 b8bc 0034 09b9 f829 6a3c 7c01 72bd
000002e0: 3832 7e3c 3a47 0c3d 029d 41bd e2bd 8fbc
000002f0: a4db 343d 0835 47bc 84cb 87bd 8649 06bd
00000300: d2d3 113d f451 9b3c a9ec 943d e277 063d
00000310: 9003 84bd 40b3 04bd 00a5 82bd 9176 53bd
00000320: 944e 64bd 743d 6cbd d2f9 4e3d a973 903d
00000330: b74e 0ebd 4a8f 5d3d 5eef 62bd 36c3 81bd
00000340: 036f 86bd 1a52 313d 786e 3fbd b890 183d
00000350: b558 6cbd cacc 633d 76e5 76bd 1e3f 84bd
00000360: c4e7 a0bc a888 64bd 9d74 9cbd 0e2c 6a3d
00000370: 3c89 353d 6fac 98bd 2a7c 55bd 7f1f 993d
00000380: 921b 0e3d 2038 ae3b e8d7 8dbd fad6 293d
00000390: b262 98bd 2325 39bd 05bd 03bd 9f89 943d
000003a0: a9ef 8a3d 812f 53bd b087 70bc d2bc 013d
000003b0: 285c 0dbd 9cbe 283d 907d 363d c0bc 453c
000003c0: 247a 2cbd 1420 46bd 30b4 ebbb 8001 78bd
000003d0: 68a1 0d3c 684b 78bc 4abc 413d 78c4 1b3c
000003e0: 6043 21bc 6d5d 863d 38fb 553c 4b7d 973d
000003f0: 67e7 8d3d 1c77 343d 003e 00bc 0e55 92bc
0.005341463 0.026649162 -0.06306969 -0.0019337833 0.041276745 -0.06871914 -0.053447485 -0.023830198
0.030564912 0.034079358 -0.060934357 0.028939031 -0.06935559 0.043308094 0.039992176 0.059371196
-0.01717573 -0.021209754 -0.068868846 -0.06536283 0.015741272 0.018970484 0.073482186 -0.03384824
-0.08288572 0.04934469 -0.015423402 -0.031216657 0.04278578 0.047300223 0.013476446 0.013369267
0.011676667 0.07053444 0.009625851 0.0017114045 -0.06029559 -0.07014148 -0.037670147 -0.04365751
0.02574685 -0.011475367 0.041109003 0.0331961 -0.02862595 0.07016899 0.0048906575 0.054707382
0.071369 0.035345756 -0.056667928 0.016092747 0.0025652125 0.06284527 -0.07560634 0.036515206
0.0065988004 -0.042269967 -0.07184891 -0.026048861 -0.008527741 -0.012760982 0.0023207292 0.060702853
0.033045143 -0.043402545 -0.007820323 0.047035538 0.044760436 0.032299213 0.06786824 -0.04418225
-0.030626737 -0.04958461 -0.010521822 0.0060706884 0.06671386 0.06465892 0.021824047 -0.051855043
-0.014264576 -0.035877347 -0.04509097 -0.03667247 -0.03469776 -0.015967622 0.04273159 0.039554946
-0.0016274974 0.050520413 -0.06271981 0.017817453 0.028941989 -0.03669843 0.049374975 0.011022732
0.057253703 0.03894496 0.029450636 -0.043883234 -0.002530431 -0.10390833 0.035648454 0.032392126
0.057100452 0.064757995 -0.023318809 0.03986419 0.014662706 -0.13061501 0.018713871 0.13158453
-0.0011995292 -0.035914212 0.061025187 0.017404646 -0.06682209 -0.027032863 -0.053497482 0.0077776713
0.050441988 0.04964916 -0.008866846 -0.04395086 0.050480377 0.050110325 0.070406504 0.013733199
0.020610396 0.0024064176 0.05418132 0.021822654 0.008703647 0.032288343 0.06122583 0.07131784
-0.043430783 -0.049559083 0.07099864 -0.045088936 -0.017183216 -0.07609644 -0.011686947 0.0598271
0.02362016 -0.02403627 0.056767013 0.019734407 -0.08274196 -0.05981952 -0.008538697 0.018202616
-0.0030475464 0.056888074 -0.06755456 0.05489244 -0.036485497 -0.067811534 0.018882727 -0.008286219
-0.017905392 -0.06437293 0.026175514 -0.043205615 0.067707606 -0.038107906 -0.0028536692 0.014900684
-0.06996956 -0.00817138 -0.045907125 0.039643668 0.06582647 -0.008293524 -0.04956981 -0.07747087
-0.07449874 0.013255283 -0.061967105 0.04837785 -0.022510689 -0.0001308471 0.014292233 -0.059083447
0.015514903 0.034247614 -0.047268875 -0.017546598 0.044154778 -0.01215864 -0.066306144 -0.03278496
0.0356024 0.018959977 0.07271702 0.032829173 -0.06445992 -0.03239751 -0.063791275 -0.051626746
-0.055739 -0.057675794 0.050531216 0.070533104 -0.034743037 0.05409173 -0.05540406 -0.06336062
-0.065641426 0.04329119 -0.04673621 0.03724739 -0.057701785 0.055615224 -0.060277425 -0.06457351
-0.019641764 -0.055794388 -0.0763943 0.05717092 0.04432033 -0.07454764 -0.052120365 0.074767105
0.03469426 0.005316749 -0.069259465 0.041464783 -0.074407 -0.045201432 -0.032162685 0.07252812
0.06783993 -0.051558975 -0.014680788 0.031674214 -0.034511715 0.041197404 0.04455334 0.012068927
-0.04210867 -0.048370436 -0.007193111 -0.060548306 0.008644439 -0.015154697 0.047298707 0.009507291
-0.009842724 0.06560788 0.0130603835 0.073969446 0.06928902 0.044058904 -0.007827282 -0.017862823

fc1.bias f4 [300]
00000000: c2d6 8c3e 3c33 2fbd 0285 c3bc 9276 77bd
00000010: ce09 6e3d 7634 a7be db9a e7bd 78b7 8b3e
00000020: 4557 f13c f172 33bc 8094 853b e8b6 a23c
00000030: 3fb6 36bd 7c26 f9bd daa3 cf3d 130f 893e
00000040: 2a62 3039 5a5f 873d dd97 3fbe d6d5 673c
00000050: c219 52bd 9a99 203d 2f94 863d 4c07 083d
00000060: 60db 87bd b3bf 6bbd 130c 38be 9dc4 71be
00000070: f31e 1d3e a8b5 74bd aeec 033e f4c1 fa3d
00000080: 80c5 6ebd f1c6 3bbe 072c a1bd 7a39 1b3d
00000090: 93f2 123c 41a6 153e e02a 453d 1e8f 28bd
000000a0: 252e 30bd 5912 923e ad99 56bd d073 03bd
000000b0: 81d2 98be 1391 963e 0a64 42bd 1c36 89bd
000000c0: cce0 953e 1d8f 8a3d 0ce0 b13d dc07 283e
000000d0: d063 a4bb af66 dfbc ea77 5c3d 9c93 0f3e
000000e0: 9325 53be d4aa ae3e e5c0 213d a6af 8ebc
000000f0: c1c0 8cbe 2e61 1e3d e97b fbbc ff0b bb3d
00000100: 28b5 d6bc 0199 59bd 08c5 763e 3174 843e
00000110: eb3b 8f3e 73ba 8d3d 5f37 143e 9503 9dbe
00000120: b2a7 563d 7c0e cb3c 434c 54be df7d 76be
00000130: 3c0a d03c 8c3c 2fbd fd78 f6bd 30cd 343c
00000140: 2050 b5bb b732 5cbd dcef 0f3d 52b2 7a3b
00000150: 519f 7f3d beff 65bd 5d0c 993e 8954 2cbd
00000160: 9613 913e 6079 873e 0e58 5a3d 8852 8bbe
00000170: 846b 9fbe f5a4 ee3d 5b46 873e 0aca 0cbe
00000180: 44fe 143d d8b3 92bc c4b8 48bd 7bee 86bd
00000190: 5fb7 0abd fe4d 003d 8b7f 15bd 4083 ca3a
000001a0: 3139 93bd ba53 483d a026 2fbb b3a6 543e
000001b0: 458a 9c3e c13f 813d f06c 163c 13f6 34bd
000001c0: 49f6 a93e da54 f93c dfb0 293e 0e93 8abd
000001d0: aae1 8c3e 645b 743e 0eca 1ebe d655 94bc
000001e0: e487 5bbe 9c35 dc3c 9026 f9bb 38ae c4bc
000001f0: c66b 5e3e ebc3 90bd 0e5a 98bd 671e 4dbe
00000200: 525b c2bc 4ef4 a1bc dd35 9f3d f3ee 8abd
00000210: f66a 743d 70e8 15bd a984 a5bd 9ca8 303d
00000220: 5905 5a3e 2844 8b3e 9f54 0d3e 77ba c33e
00000230: e6db 283d aef4 363d 53d5 97be bcc5 aebb
00000240: 38f0 3dbd ad6f 70be 7bd1 26be 5ef6 4e3e
00000250: 311e 143e 24a4 f2bd 7ef8 403d 535d 283e
00000260: 648e c6bc 70a4 13bc b008 133d c049 72bc
00000270: c0df 903e bc7b bb3d 7e20 85bd bd0e c6bd
00000280: bbc3 6ebd 1428 7abd fa06 b8bc b2bb 3c3d
00000290: 88df 00bd d1e3 65be a8ac c43c b2fd 88bc
000002a0: 87b1 a8bd a0f3 8b3c 94af b5be 6ec0 42bd
000002b0: 0129 873d 0115 a13c ca99 38bd 0076 f23c
000002c0: 60da 6f3b e378 493d bc3f 05bd f250 59bd
000002d0: db50 233e d29e b3bc 42d3 f63d 6e4f 4b3d
000002e0: 7859 6abc 48fa dfbc 9ecc e83d 70e4 c43c
000002f0: fed3 efbc 6aa1 f3bc 0c2e 4abd 4b3f 603e
00000300: 98ab 9f3e 992a 12be e447 00be bdd2 553e
00000310: 2bd4 1cbd fed1 003d 328b 313d 4d79 6a3d
00000320: 827e 703d 2fe9 2fbe 489e 903e d0e3 2b3c
00000330: 1571 a7be f826 fb3c 2254 973d 11d6 7f3e
00000340: 6823 c23b 294f 1abd a8b8 063c 4c83 67bc
00000350: 1333 bebc c2d6 563d e02d b7bb 055d f73d
00000360: ad5b b4be c2cb 963e 029e d6bc 21f1 dfbd
00000370: 207d 32bb 2c4d 30be 3bc8 663d 09ee b5bb
00000380: 851c 2dbe 93d1 0f3d ff74 1e3d 25e9 e93d
00000390: 06f7 afbc a818 2e3c 7c05 6d3e 921f 12be
000003a0: 9a1c e03d ef70 a23e d7b6 4a3c 0a75 64bd
000003b0: 2e7b 7d3d f50a 34bd d2cd 5a3d 5e2b 113d
000003c0: db53 3cbe 67dd 38bd 58d2 f93c fe92 4b3e
000003d0: 231c 06bd ed47 3a3e bc4d 9abb 2cea 373d
000003e0: 083b 6b3d 6095 73be 60bc f13b 35db 2ebd
000003f0: 082f eb3d 6c06 4d3e 8951 1ebe bae2 c33c
0.27507597 -0.04277347 -0.023867134 -0.06041581 0.05811482 -0.32657212 -0.11308833 0.27288413
0.029460559 -0.010952697 0.0040765405 0.019862607 -0.044607397 -0.121655434 0.10138674 0.26769313
0.00016821237 0.06609984 -0.18710275 0.014150104 -0.051294096 0.039208986 0.065712325 0.033210084
-0.06633639 -0.057555865 -0.17973356 -0.23610158 0.15343837 -0.059743553 0.12883255 0.12244025
-0.05829382 -0.18337609 -0.07869726 0.03789661 0.008968967 0.14614202 0.048136592 -0.041152112
-0.043012757 0.28529623 -0.05239265 -0.03209287 -0.29848102 0.29407558 -0.047458686 -0.06699774
0.2927307 0.06765578 0.08685312 0.16409248 -0.0050167814 -0.027270643 0.053825296 0.14021152
-0.20619802 0.34114707 0.0394906 -0.01741774 -0.2749081 0.038666897 -0.030698733 0.091331474
-0.026209429 -0.05312443 0.24098599 0.25869897 0.279754 0.06920328 0.14474247 -0.30666795
0.05240602 0.02478718 -0.20732217 -0.24071454 0.025395505 -0.04278235 -0.120347954 0.011035249
-0.0055332333 -0.053759303 0.035140857 0.003825326 0.062407795 -0.056152098 0.29892245 -0.042072807
0.28335255 0.2645979 0.05330663 -0.27211404 -0.31136715 0.11652557 0.26420864 -0.13748947
0.0363753 -0.017908022 -0.04900433 -0.06588455 -0.033866283 0.03132438 -0.036498588 0.0015450493
-0.07188643 0.048907973 -0.0026725903 0.20766716 0.3057424 0.06310988 0.009181246 -0.044179987
0.33195713 0.030435968 0.16571377 -0.0676633 0.27515918 0.23862988 -0.15506765 -0.018107336
-0.21438557 0.026881032 -0.007603474 -0.024008855 0.217208 -0.070686184 -0.074390516 -0.20031129
-0.023725186 -0.019769814 0.077739455 -0.06783857 0.05967232 -0.036598623 -0.080819435 0.04312955
0.21291102 0.27200437 0.13801812 0.382282 0.041225336 0.04466694 -0.2965494 -0.0053336304
-0.04637167 -0.23480101 -0.16290848 0.20211169 0.14464642 -0.118477136 0.04711198 0.1644185
-0.024237819 -0.009011373 0.035896957 -0.014788091 0.28295708 0.0915446 -0.06500338 -0.0967078
-0.058292132 -0.061073378 -0.022464264 0.046077438 -0.031463176 -0.22450186 0.02400811 -0.016722534
-0.08236986 0.017083943 -0.35485518 -0.047546797 0.06599618 0.019663336 -0.04506854 0.029597282
0.0036598668 0.049187552 -0.032531485 -0.05305571 0.15948813 -0.021926317 0.12052013 0.049636297
-0.014303558 -0.027341023 0.11367153 0.024034709 -0.02927589 -0.029740054 -0.04936032 0.21899144
0.31185603 -0.14274062 -0.12527424 0.20881172 -0.038288277 0.031450264 0.043345638 0.057244588
0.058714397 -0.17178796 0.2824576 0.010491326 -0.32703462 0.03065823 0.07389094 0.24984004
0.005924631 -0.03767315 0.008222736 -0.014130425 -0.023217713 0.052450903 -0.0055901855 0.12078289
-0.35226193 0.2945233 -0.02619839 -0.109346636 -0.0027235225 -0.17216939 0.0563433 -0.0055520576
-0.1690541 0.035111975 0.038685795 0.11421422 -0.021480095 0.010625996 0.23146623 -0.14269856
0.10942955 0.31726786 0.012372694 -0.05577568 0.06188505 -0.043955762 0.05341894 0.03544175
-0.18391363 -0.04513302 0.030495808 0.19880292 -0.032741677 0.181915 -0.0047089737 0.044901058
0.057429343 -0.23787451 0.0073771924 -0.04268952 0.1148358 0.20021981 -0.1546079 0.023911823

fc2.weight f4 [100, 300]
00000000: 5bf2 983c ccda 6abc 7838 cbbc fe8f 003d
00000010: 84ac b53c 8006 28bc 141c 3d3d 8bed 12bd
00000020: 1635 21bc 2fce f63b 4252 073d 7242 5bbd
00000030: 8a18 203d 92a7 3dbd c688 51bd 330e cebc
00000040: e110 cdb9 b452 463d 24bb 4fbd da4d 513d
00000050: f089 aa3b 6cbb 47bd 3758 26bd 561a 83bc
00000060: a17f 02bd 4b3b 4b3c f36d 0cbd 2983 78bb
00000070: 6f8b 51bd eaf7 48bd 6200 d1bc 9db8 c4bc
00000080: 70bc b13b 4367 2c3d f5ea 94bd d026 14bd
00000090: b653 603c f1f2 863c 80a7 463d 6a39 343c
000000a0: 583f 633c 8e9c 403d 8264 f83c 3a40 d53c
000000b0: 18f9 08bd df45 053d 713d 693d 1046 853b
000000c0: d4f8 433d 0090 35bd b8b4 c73c bf17 6d3d
000000d0: 40dc 243c 23ac 043d 34e1 6abc 767a 3b3d
000000e0: f5c4 f6bc 4dc1 3abd 8bc9 37bd 6e7f 203d
000000f0: a7df 8d3b 355b 053d 9ac3 4abd 50ed 04bc
00000100: 1dc6 0cbd a437 6f3d d3dd 47bc 78b1 a73c
00000110: 6372 06bd b364 e7bc 50e4 f2bc 0ab1 1ebd
00000120: 6c8b 36bd c0dd 2f3d 6926 5fba c684 0abd
00000130: cc08 2cbc d334 213c b939 963c 880a d23c
00000140: 940c f83c 4c3f 343c f0f3 703c 7c40 64bb
00000150: 5f99 c43c a0cb 2dbd 4141 213d 76fc ac3a
00000160: 5ee8 a2bc 9e05 1cbd 78ad 86bc e1c2 12bc
00000170: 4d34 7cbc ef70 303d 9424 343d 93a4 353d
00000180: 1a21 e2bc 0415 843c 2089 223d a3c6 32bd
00000190: d52b 21bd e49f be3c 5c6f 54bc 64c4 ea3c
000001a0: 10e6 303c 60b9 8b3a b13d 38bd f5b4 4f3d
000001b0: 9944 b23d 5091 a13c 60d7 4d3c c873 193c
000001c0: af5b d93c 89f8 1c3d e1e0 8f3d 221d 57bd
000001d0: 1c9d 1d3d 3e7d f33b 28f1 1bbb 70e2 483b
000001e0: 4644 2f3c 338b 2b3c b0dd 0a3d 5202 5b3d
000001f0: 4c6b 3e3c f69c fbbc 04c4 da3c 3101 163d
00000200: cd16 123d feb4 373d 109c 8f3c 757e e93b
00000210: 947a 2f3d 277e 273c fc71 0ebd 20a0 eabb
00000220: 2050 30bd cc13 52bc 9847 e0bc 7366 263d
00000230: 1ee9 1b3d 2cc7 27bd 709f 01bc 6c94 613c
00000240: 4363 f93b 7e18 3ebd eb85 11bd 2093 e2bc
00000250: be8b 333c 0292 a0bc 3625 a43b 8244 00bd
00000260: b87b 1b3d 6c7f 0abc 4cc0 c5bc e8a4 463d
00000270: af79 0b3d f6d1 283c d058 39bb 1d85 ccbc
00000280: 8f47 cfbc 5221 21bd 75cb 16bd cca4 bf3c
00000290: 8cb6 ebbc a475 65bd 08b8 d03c e6a8 abbc
000002a0: 74c0 8dbb de4d b0bc fb6e 3c3c 6765 37bd
000002b0: 67dc 483d 4054 66bd 1819 303d 12c6 0c3d
000002c0: feb6 a4bc 96a8 9b3b 206d 95ba b044 8c3c
000002d0: 82e9 a63c 58da 71bc 5014 b53b b19a e23c
000002e0: 48eb 2fbc e4c2 8ebc 8c8c 623d 0cb7 083d
000002f0: 083f 63bc b148 2cbd d041 bb3b 9fa5 3b3c
00000300: d73c 2e3d a729 0bbc dc0f 6cb9 5385 723d
00000310: f014 283d 8407 373d 289e debc a8d1 683d
00000320: 4271 003d 5902 75bd 8ad4 6d3d 6847 643d
00000330: 6589 3cbc 9afe 4c3d 629e 223c 63ea d8bb
00000340: 3b77 663c 4a14 36bc 7721 31bd 3f7e 35bd
00000350: 3240 61bd 8c2d 543d e64b 563d 3e6c 223c
00000360: e639 66bc 7c91 463c 6028 39bd 0ecd 0bbc
00000370: f423 0fbd c942 4c3d 2635 1e3d 9a71 aabc
00000380: 4099 4c3d ec4f b33c 2c18 4cbd 8871 f83b
00000390: 8e93 97bc 08cf 463d dbaf d93c b019 f2bc
000003a0: 2353 4f3d b527 013d b318 b63c a72d 68bd
000003b0: d86b 563d 7f7e 52bd 8a0a a4bc f8bb 393c
000003c0: 7529 3e3d b075 593c 5c1a 283d 2085 44bd
000003d0: 80ff 6a3d 5390 933c a379 1f3c aa77 84bc
000003e0: ba18 cb3b e9e4 0dbd 10c8 69bd 8e5e 0d3d
000003f0: 5d26 c63c 03b4 d1bc 4bd4 293d 84ef cd3c
0.018670252 -0.014334392 -0.0248072 0.03138732 0.022176988 -0.010255456 0.046169356 -0.03587107
-0.009839317 0.007531903 0.03303743 -0.053530164 0.039085902 -0.046302386 -0.051155828 -0.025153255
-0.00039113223 0.048418716 -0.05071558 0.051099636 0.0052044317 -0.048762724 -0.040611472 -0.016003769
-0.031859998 0.012404273 -0.034284543 -0.0037919974 -0.051158365 -0.049064554 -0.025512878 -0.024013812
0.005424075 0.042090666 -0.07271377 -0.036169827 0.013691833 0.016473265 0.048499584 0.011000017
0.013870083 0.047024302 0.030321363 0.026031602 -0.03344068 0.032537337 0.05694336 0.00406719
0.047844723 -0.044326782 0.024378166 0.057883974 0.010062277 0.032390725 -0.014335919 0.045771085
-0.030123213 -0.045594502 -0.04486994 0.039184026 0.00432964 0.032557685 -0.049502946 -0.00811322
-0.034368623 0.058402672 -0.012198883 0.020470366 -0.03282393 -0.02824626 -0.029649884 -0.038743056
-0.044566557 0.042936087 -0.00085124985 -0.03381803 -0.010500144 0.009839254 0.018338071 0.025639787
0.030279435 0.011001419 0.014706597 -0.0034828475 0.023998914 -0.04243052 0.03936887 0.0013197798
-0.019886192 -0.038091294 -0.016440138 -0.008957596 -0.015393329 0.043076452 0.043980196 0.044346403
-0.027603675 0.016123302 0.039681554 -0.043646466 -0.039348442 0.023269601 -0.012966003 0.0286581
0.010797039 0.0010660104 -0.04498071 0.050709683 0.0870449 0.01972261 0.012563556 0.009365983
0.026532976 0.03832296 0.07025314 -0.052518018 0.03847991 0.0074307015 -0.0023794863 0.0030652545
0.01069743 0.010470199 0.033902824 0.05346901 0.011622261 -0.030714493 0.026704796 0.03662223
0.035666276 0.044850342 0.017530471 0.0071256706 0.04284151 0.010222948 -0.034776673 -0.0071602017
-0.043045163 -0.012822103 -0.027377889 0.040625047 0.038064115 -0.04096143 -0.007911548 0.013768297
0.00761071 -0.046410076 -0.035528105 -0.027658045 0.01095861 -0.019600872 0.0050093187 -0.031315334
0.037959784 -0.008453231 -0.024139546 0.04849711 0.034051593 0.010303965 -0.0028281696 -0.024965817
-0.025302676 -0.039338417 -0.036815125 0.023394011 -0.028773569 -0.056020394 0.025478378 -0.02095456
-0.0043259207 -0.021521505 0.011501069 -0.04477444 0.049038317 -0.05623269 0.04299268 0.034368582
-0.020106789 0.0047503216 -0.001140032 0.017122597 0.020375017 -0.01476153 0.005526103 0.027661653
-0.010737248 -0.017426915 0.055309817 0.033377692 -0.013870008 -0.04206151 0.0057146326 0.011453061
0.04253849 -0.008493817 -0.00022512622 0.05920918 0.041035593 0.0446849 -0.027175024 0.05684057
0.03135801 -0.059816692 0.05806402 0.05573216 -0.011507367 0.050047494 0.009925457 -0.006619738
0.014066513 -0.011113236 -0.043244805 -0.04430985 -0.054992862 0.05180125 0.052318476 0.009913502
-0.01405189 0.012119647 -0.04520452 -0.008532776 -0.034946397 0.04986838 0.038624905 -0.020806123
0.049950838 0.021888696 -0.04982774 0.0075818934 -0.018502977 0.048537284 0.026573112 -0.029553264
0.050616395 0.03153201 0.022228574 -0.056684162 0.05234894 -0.051390167 -0.020024557 0.011336319
0.046426255 0.013272688 0.041040763 -0.04797852 0.05737257 0.018013155 0.00973359 -0.016170342
0.006198016 -0.034642134 -0.05707556 0.034514003 0.024188215 -0.025598532 0.041462224 0.025138624

fc2.bias f4 [100]
00000000: 1c3a 8f3e 48fc d2bb 64d3 d13c 2ebc abbe
00000010: de8e 8b3e ba76 a2be 6944 483c c707 cdbc
00000020: b4af e2bc 11ff 83be 2054 dd3c 6230 b2be
00000030: b0dc b2be ba50 f13b 7070 0a3b 82b1 c23b
00000040: 110c 4d3d 664f e73d 4bd0 17bd 10c1 52bb
00000050: c30e 29bd 08c1 87be bee2 adbc cdcb 9dbe
00000060: 2ad7 3d3d 9c48 d9bc 72b9 a2be 1cf5 0ebd
00000070: e788 9f3e 3feb 99be 2a90 6f3e 563b 99be
00000080: 9bc3 97be 6baf 8cbe a3a5 70be 2d10 d33c
00000090: 978b e83c 405e 51bc baa2 103d 686c edbc
000000a0: b7f5 1fbd 222f 62bc 7583 a0be 34c1 6dbd
000000b0: 89c8 a83c 2b4b 31bd d299 873e 485b 8d3e
000000c0: d740 80bc cc3f f13c a421 863e 555c 86be
000000d0: 0a2b a63e 9e4e 81be a06a 89be 173d ccbc
000000e0: cccf 7fbc ae76 a03c dbdb 8a3e d0fb 5f3c
000000f0: a021 513c 9ccf f8bc 326a 5fbc cde9 713e
00000100: 1779 443e 4d28 be3c 3776 913e b892 aebc
00000110: 5809 86be f7bb 8c3e e550 383e 6703 723e
00000120: 17d6 14bd 80f0 8c3e 92aa ae3e 5717 88bd
00000130: 8db1 b8bd 7da3 c2bb 9405 1c3d 2d8b 63bc
00000140: 83aa 4ebd 7fd3 7e3e e8b9 3e3c 55c6 093e
00000150: 826d ebbc 1854 71bc e725 20bd 0b23 6b3d
00000160: dabe 94bc b733 3d3d 599b 70be 4343 d53d
00000170: de55 773e 5c75 4abd ae02 723e 1814 b23e
00000180: 1c46 9dbe 9c5f 653d c07b 9e3c 8788 5e3d
0.2797402 -0.0064387657 0.025613494 -0.33542007 0.27257437 -0.31731206 0.0122233415 -0.025028123
-0.027671672 -0.25780538 0.027017653 -0.34802538 -0.34933996 0.0073643597 0.0021124147 0.0059415707
0.050060336 0.11294441 -0.037063878 -0.0032158531 -0.041273843 -0.2651446 -0.021226283 -0.3081955
0.046347775 -0.02652388 -0.3178211 -0.034901723 0.31159136 -0.3006229 0.23394838 -0.29928082
-0.29641423 -0.27477583 -0.23500685 0.02576455 0.028386874 -0.012778819 0.03531144 -0.028982356
-0.03905269 -0.013805183 -0.31350294 -0.05804558 0.020603435 -0.043284576 0.26484543 0.27608705
-0.015655918 0.029449366 0.2619754 -0.2624232 0.3245471 -0.25255293 -0.2683916 -0.024931474
-0.0156135075 0.01958784 0.2712086 0.013670877 0.0127643645 -0.030372433 -0.013636159 0.23624344
0.19186817 0.023212576 0.28410503 -0.021310195 -0.26179004 0.27487156 0.17999609 0.2363411
-0.036336984 0.27527237 0.3411451 -0.06645077 -0.0901824 -0.0059398995 0.038091257 -0.013888163
-0.05045558 0.24885367 0.011641003 0.13454564 -0.02873874 -0.014729522 -0.039098646 0.057406466
-0.018157411 0.046191897 -0.2349676 0.1041322 0.2415385 -0.04942833 0.23633835 0.34780955
-0.30717552 0.055999383 0.019346118 0.05432942

fc3.weight f4 [1, 100]
00000000: 8261 633d e08d cc3b 2afa 3cbd 5a8b 46bd
00000010: 21a1 ba3d 6bf8 3bbd 04f2 48bd b4c6 6fb9
00000020: 1f48 abbd b177 4cbd 8986 e4bc 921f a9bb
00000030: c807 8fbd ed35 a33d 74c8 abbc bfce 90bd
00000040: beaf 613d 9a71 b03d 2173 1fbd 04ed 993b
00000050: b01c a63d a699 b9bc 96b9 673d 7db1 3ebd
00000060: 39ca c93d 583b e4bc cb5c 8dbd 422b 8abd
00000070: 57c6 943d 4e07 8bbd 0ffe 133d 52df 39bd
00000080: 5222 36bd d62c 2cbd 424d e7bd c4ef 32bd
00000090: a4ec 06bd 2218 acbd 36ca 003d 7f18 c3bd
000000a0: 801f 27bc eb11 6a3d d628 81bb ff60 10bc
000000b0: 9c92 843d b8eb 4b3c 9752 b23d f69d 973c
000000c0: 3918 84bd 023f 1a3d ce76 973d 8e6f 2fbd
000000d0: 78c0 b23d 389d 81bd 89c0 89bd 4f6f e5bc
000000e0: 619f 853d 286c 10bd a46c 993d cdf6 663d
000000f0: 7c1c 80bd 6624 8dbd 6bd3 1fbe f07a a93b
00000100: f12e 7e3d 76d2 1bbe fe5a 713d 039c 0fbb
00000110: f7dd 23bc 9578 043d ff15 5f3d b3b4 603d
00000120: ba9e 93bd a4c2 d83c 92ab db3c 5445 e7bb
00000130: 163c 83bd a65b bfbd d361 913d edd6 7f3d
00000140: bfbe f83b 6894 863d a893 663c 7f14 733e
00000150: e6a6 623d 007f d5bb a75e 693d 5703 563d
00000160: 7a10 3abc 2443 3c3d ea6d 63bd 0e21 8d3d
00000170: 45f3 af3d ac90 eb3c 3b73 873d 546f 303d
00000180: 9919 37bd 0338 173e 2014 a6bc 567e dc3c
0.055512913 0.0062424988 -0.046137013 -0.04847274 0.09112764 -0.045891207 -0.04905893 -0.00022866839
-0.083633654 -0.049918834 -0.027896183 -0.005161234 -0.06983906 0.0796927 -0.020969607 -0.07070684
0.05509924 0.08615418 -0.038928155 0.004697444 0.081109405 -0.022656273 0.056573473 -0.046555985
0.09853024 -0.027860329 -0.069024645 -0.06746532 0.07264393 -0.06788503 0.03613096 -0.04537899
-0.044466324 -0.042034946 -0.11294033 -0.04368569 -0.03294052 -0.084030405 0.031442843 -0.09526157
-0.010200381 0.057145994 -0.0039416356 -0.008812188 0.06473276 0.012446336 0.08707159 0.018507939
-0.064499326 0.037657745 0.07395707 -0.042830996 0.08728117 -0.06328815 -0.06726176 -0.028007178
0.0652454 -0.035259396 0.07491425 0.05638771 -0.06255433 -0.06891708 -0.15607993 0.005172126
0.062056486 -0.15217003 0.058924668 -0.0021913059 -0.010001651 0.03234156 0.054464336 0.05485983
-0.07208009 0.02646 0.02681521 -0.007057825 -0.06407945 -0.093436524 0.070987366 0.06246083
0.007591098 0.06571275 0.01407329 0.23738287 0.055334948 -0.0065153837 0.056975033 0.05224928
-0.011356467 0.045962468 -0.055524744 0.0689107 0.08591322 0.028755508 0.06613775 0.04307492
-0.044702146 0.1476746 -0.020273268 0.02691571
